{"format": "layers-model", "generatedBy": "keras v2.5.0", "convertedBy": "TensorFlow.js Converter v3.6.0", "modelTopology": {"keras_version": "2.5.0", "backend": "tensorflow", "model_config": {"class_name": "Functional", "config": {"name": "hrnet", "layers": [{"class_name": "InputLayer", "config": {"batch_input_shape": [null, 384, 384, 3], "dtype": "float32", "sparse": false, "ragged": false, "name": "input_2"}, "name": "input_2", "inbound_nodes": []}, {"class_name": "Conv2D", "config": {"name": "stage1_stem_conv1", "trainable": true, "dtype": "float32", "filters": 64, "kernel_size": [3, 3], "strides": [2, 2], "padding": "same", "data_format": "channels_last", "dilation_rate": [1, 1], "groups": 1, "activation": "linear", "use_bias": false, "kernel_initializer": {"class_name": "HeNormal", "config": {"seed": null}}, "bias_initializer": {"class_name": "Zeros", "config": {}}, "kernel_regularizer": null, "bias_regularizer": null, "activity_regularizer": null, "kernel_constraint": null, "bias_constraint": null}, "name": "stage1_stem_conv1", "inbound_nodes": [[["input_2", 0, 0, {}]]]}, {"class_name": "BatchNormalization", "config": {"name": "stage1_stem_bn1", "trainable": true, "dtype": "float32", "axis": [3], "momentum": 0.1, "epsilon": 0.001, "center": true, "scale": true, "beta_initializer": {"class_name": "Zeros", "config": {}}, "gamma_initializer": {"class_name": "Ones", "config": {}}, "moving_mean_initializer": {"class_name": "Zeros", "config": {}}, "moving_variance_initializer": {"class_name": "Ones", "config": {}}, "beta_regularizer": null, "gamma_regularizer": null, "beta_constraint": null, "gamma_constraint": null}, "name": "stage1_stem_bn1", "inbound_nodes": [[["stage1_stem_conv1", 0, 0, {}]]]}, {"class_name": "Activation", "config": {"name": "stage1_stem_relu1", "trainable": true, "dtype": "float32", "activation": "relu"}, "name": "stage1_stem_relu1", "inbound_nodes": [[["stage1_stem_bn1", 0, 0, {}]]]}, {"class_name": "Conv2D", "config": {"name": "stage1_stem_conv2", "trainable": true, "dtype": "float32", "filters": 64, "kernel_size": [3, 3], "strides": [2, 2], "padding": "same", "data_format": "channels_last", "dilation_rate": [1, 1], "groups": 1, "activation": "linear", "use_bias": false, "kernel_initializer": {"class_name": "HeNormal", "config": {"seed": null}}, "bias_initializer": {"class_name": "Zeros", "config": {}}, "kernel_regularizer": null, "bias_regularizer": null, "activity_regularizer": null, "kernel_constraint": null, "bias_constraint": null}, "name": "stage1_stem_conv2", "inbound_nodes": [[["stage1_stem_relu1", 0, 0, {}]]]}, {"class_name": "BatchNormalization", "config": {"name": "stage1_stem_bn2", "trainable": true, "dtype": "float32", "axis": [3], "momentum": 0.1, "epsilon": 0.001, "center": true, "scale": true, "beta_initializer": {"class_name": "Zeros", "config": {}}, "gamma_initializer": {"class_name": "Ones", "config": {}}, "moving_mean_initializer": {"class_name": "Zeros", "config": {}}, "moving_variance_initializer": {"class_name": "Ones", "config": {}}, "beta_regularizer": null, "gamma_regularizer": null, "beta_constraint": null, "gamma_constraint": null}, "name": "stage1_stem_bn2", "inbound_nodes": [[["stage1_stem_conv2", 0, 0, {}]]]}, {"class_name": "Activation", "config": {"name": "stage1_stem_relu2", "trainable": true, "dtype": "float32", "activation": "relu"}, "name": "stage1_stem_relu2", "inbound_nodes": [[["stage1_stem_bn2", 0, 0, {}]]]}, {"class_name": "Conv2D", "config": {"name": "stage1_bottleneck1_conv1", "trainable": true, "dtype": "float32", "filters": 64, "kernel_size": [1, 1], "strides": [1, 1], "padding": "same", "data_format": "channels_last", "dilation_rate": [1, 1], "groups": 1, "activation": "linear", "use_bias": false, "kernel_initializer": {"class_name": "HeNormal", "config": {"seed": null}}, "bias_initializer": {"class_name": "Zeros", "config": {}}, "kernel_regularizer": null, "bias_regularizer": null, "activity_regularizer": null, "kernel_constraint": null, "bias_constraint": null}, "name": "stage1_bottleneck1_conv1", "inbound_nodes": [[["stage1_stem_relu2", 0, 0, {}]]]}, {"class_name": "BatchNormalization", "config": {"name": "stage1_bottleneck1_bn1", "trainable": true, "dtype": "float32", "axis": [3], "momentum": 0.1, "epsilon": 0.001, "center": true, "scale": true, "beta_initializer": {"class_name": "Zeros", "config": {}}, "gamma_initializer": {"class_name": "Ones", "config": {}}, "moving_mean_initializer": {"class_name": "Zeros", "config": {}}, "moving_variance_initializer": {"class_name": "Ones", "config": {}}, "beta_regularizer": null, "gamma_regularizer": null, "beta_constraint": null, "gamma_constraint": null}, "name": "stage1_bottleneck1_bn1", "inbound_nodes": [[["stage1_bottleneck1_conv1", 0, 0, {}]]]}, {"class_name": "Activation", "config": {"name": "stage1_bottleneck1_relu1", "trainable": true, "dtype": "float32", "activation": "relu"}, "name": "stage1_bottleneck1_relu1", "inbound_nodes": [[["stage1_bottleneck1_bn1", 0, 0, {}]]]}, {"class_name": "Conv2D", "config": {"name": "stage1_bottleneck1_conv2", "trainable": true, "dtype": "float32", "filters": 64, "kernel_size": [3, 3], "strides": [1, 1], "padding": "same", "data_format": "channels_last", "dilation_rate": [1, 1], "groups": 1, "activation": "linear", "use_bias": false, "kernel_initializer": {"class_name": "HeNormal", "config": {"seed": null}}, "bias_initializer": {"class_name": "Zeros", "config": {}}, "kernel_regularizer": null, "bias_regularizer": null, "activity_regularizer": null, "kernel_constraint": null, "bias_constraint": null}, "name": "stage1_bottleneck1_conv2", "inbound_nodes": [[["stage1_bottleneck1_relu1", 0, 0, {}]]]}, {"class_name": "BatchNormalization", "config": {"name": "stage1_bottleneck1_bn2", "trainable": true, "dtype": "float32", "axis": [3], "momentum": 0.1, "epsilon": 0.001, "center": true, "scale": true, "beta_initializer": {"class_name": "Zeros", "config": {}}, "gamma_initializer": {"class_name": "Ones", "config": {}}, "moving_mean_initializer": {"class_name": "Zeros", "config": {}}, "moving_variance_initializer": {"class_name": "Ones", "config": {}}, "beta_regularizer": null, "gamma_regularizer": null, "beta_constraint": null, "gamma_constraint": null}, "name": "stage1_bottleneck1_bn2", "inbound_nodes": [[["stage1_bottleneck1_conv2", 0, 0, {}]]]}, {"class_name": "Activation", "config": {"name": "stage1_bottleneck1_relu2", "trainable": true, "dtype": "float32", "activation": "relu"}, "name": "stage1_bottleneck1_relu2", "inbound_nodes": [[["stage1_bottleneck1_bn2", 0, 0, {}]]]}, {"class_name": "Conv2D", "config": {"name": "stage1_bottleneck1_conv3", "trainable": true, "dtype": "float32", "filters": 256, "kernel_size": [1, 1], "strides": [1, 1], "padding": "valid", "data_format": "channels_last", "dilation_rate": [1, 1], "groups": 1, "activation": "linear", "use_bias": false, "kernel_initializer": {"class_name": "HeNormal", "config": {"seed": null}}, "bias_initializer": {"class_name": "Zeros", "config": {}}, "kernel_regularizer": null, "bias_regularizer": null, "activity_regularizer": null, "kernel_constraint": null, "bias_constraint": null}, "name": "stage1_bottleneck1_conv3", "inbound_nodes": [[["stage1_bottleneck1_relu2", 0, 0, {}]]]}, {"class_name": "Conv2D", "config": {"name": "stage1_bottleneck1_down_conv", "trainable": true, "dtype": "float32", "filters": 256, "kernel_size": [1, 1], "strides": [1, 1], "padding": "valid", "data_format": "channels_last", "dilation_rate": [1, 1], "groups": 1, "activation": "linear", "use_bias": false, "kernel_initializer": {"class_name": "HeNormal", "config": {"seed": null}}, "bias_initializer": {"class_name": "Zeros", "config": {}}, "kernel_regularizer": null, "bias_regularizer": null, "activity_regularizer": null, "kernel_constraint": null, "bias_constraint": null}, "name": "stage1_bottleneck1_down_conv", "inbound_nodes": [[["stage1_stem_relu2", 0, 0, {}]]]}, {"class_name": "BatchNormalization", "config": {"name": "stage1_bottleneck1_bn3", "trainable": true, "dtype": "float32", "axis": [3], "momentum": 0.1, "epsilon": 0.001, "center": true, "scale": true, "beta_initializer": {"class_name": "Zeros", "config": {}}, "gamma_initializer": {"class_name": "Ones", "config": {}}, "moving_mean_initializer": {"class_name": "Zeros", "config": {}}, "moving_variance_initializer": {"class_name": "Ones", "config": {}}, "beta_regularizer": null, "gamma_regularizer": null, "beta_constraint": null, "gamma_constraint": null}, "name": "stage1_bottleneck1_bn3", "inbound_nodes": [[["stage1_bottleneck1_conv3", 0, 0, {}]]]}, {"class_name": "BatchNormalization", "config": {"name": "stage1_bottleneck1_down_bn", "trainable": true, "dtype": "float32", "axis": [3], "momentum": 0.1, "epsilon": 0.001, "center": true, "scale": true, "beta_initializer": {"class_name": "Zeros", "config": {}}, "gamma_initializer": {"class_name": "Ones", "config": {}}, "moving_mean_initializer": {"class_name": "Zeros", "config": {}}, "moving_variance_initializer": {"class_name": "Ones", "config": {}}, "beta_regularizer": null, "gamma_regularizer": null, "beta_constraint": null, "gamma_constraint": null}, "name": "stage1_bottleneck1_down_bn", "inbound_nodes": [[["stage1_bottleneck1_down_conv", 0, 0, {}]]]}, {"class_name": "Add", "config": {"name": "stage1_bottleneck1_res", "trainable": true, "dtype": "float32"}, "name": "stage1_bottleneck1_res", "inbound_nodes": [[["stage1_bottleneck1_bn3", 0, 0, {}], ["stage1_bottleneck1_down_bn", 0, 0, {}]]]}, {"class_name": "Activation", "config": {"name": "stage1_bottleneck1_out", "trainable": true, "dtype": "float32", "activation": "relu"}, "name": "stage1_bottleneck1_out", "inbound_nodes": [[["stage1_bottleneck1_res", 0, 0, {}]]]}, {"class_name": "Conv2D", "config": {"name": "stage1_bottleneck2_conv1", "trainable": true, "dtype": "float32", "filters": 64, "kernel_size": [1, 1], "strides": [1, 1], "padding": "same", "data_format": "channels_last", "dilation_rate": [1, 1], "groups": 1, "activation": "linear", "use_bias": false, "kernel_initializer": {"class_name": "HeNormal", "config": {"seed": null}}, "bias_initializer": {"class_name": "Zeros", "config": {}}, "kernel_regularizer": null, "bias_regularizer": null, "activity_regularizer": null, "kernel_constraint": null, "bias_constraint": null}, "name": "stage1_bottleneck2_conv1", "inbound_nodes": [[["stage1_bottleneck1_out", 0, 0, {}]]]}, {"class_name": "BatchNormalization", "config": {"name": "stage1_bottleneck2_bn1", "trainable": true, "dtype": "float32", "axis": [3], "momentum": 0.1, "epsilon": 0.001, "center": true, "scale": true, "beta_initializer": {"class_name": "Zeros", "config": {}}, "gamma_initializer": {"class_name": "Ones", "config": {}}, "moving_mean_initializer": {"class_name": "Zeros", "config": {}}, "moving_variance_initializer": {"class_name": "Ones", "config": {}}, "beta_regularizer": null, "gamma_regularizer": null, "beta_constraint": null, "gamma_constraint": null}, "name": "stage1_bottleneck2_bn1", "inbound_nodes": [[["stage1_bottleneck2_conv1", 0, 0, {}]]]}, {"class_name": "Activation", "config": {"name": "stage1_bottleneck2_relu1", "trainable": true, "dtype": "float32", "activation": "relu"}, "name": "stage1_bottleneck2_relu1", "inbound_nodes": [[["stage1_bottleneck2_bn1", 0, 0, {}]]]}, {"class_name": "Conv2D", "config": {"name": "stage1_bottleneck2_conv2", "trainable": true, "dtype": "float32", "filters": 64, "kernel_size": [3, 3], "strides": [1, 1], "padding": "same", "data_format": "channels_last", "dilation_rate": [1, 1], "groups": 1, "activation": "linear", "use_bias": false, "kernel_initializer": {"class_name": "HeNormal", "config": {"seed": null}}, "bias_initializer": {"class_name": "Zeros", "config": {}}, "kernel_regularizer": null, "bias_regularizer": null, "activity_regularizer": null, "kernel_constraint": null, "bias_constraint": null}, "name": "stage1_bottleneck2_conv2", "inbound_nodes": [[["stage1_bottleneck2_relu1", 0, 0, {}]]]}, {"class_name": "BatchNormalization", "config": {"name": "stage1_bottleneck2_bn2", "trainable": true, "dtype": "float32", "axis": [3], "momentum": 0.1, "epsilon": 0.001, "center": true, "scale": true, "beta_initializer": {"class_name": "Zeros", "config": {}}, "gamma_initializer": {"class_name": "Ones", "config": {}}, "moving_mean_initializer": {"class_name": "Zeros", "config": {}}, "moving_variance_initializer": {"class_name": "Ones", "config": {}}, "beta_regularizer": null, "gamma_regularizer": null, "beta_constraint": null, "gamma_constraint": null}, "name": "stage1_bottleneck2_bn2", "inbound_nodes": [[["stage1_bottleneck2_conv2", 0, 0, {}]]]}, {"class_name": "Activation", "config": {"name": "stage1_bottleneck2_relu2", "trainable": true, "dtype": "float32", "activation": "relu"}, "name": "stage1_bottleneck2_relu2", "inbound_nodes": [[["stage1_bottleneck2_bn2", 0, 0, {}]]]}, {"class_name": "Conv2D", "config": {"name": "stage1_bottleneck2_conv3", "trainable": true, "dtype": "float32", "filters": 256, "kernel_size": [1, 1], "strides": [1, 1], "padding": "valid", "data_format": "channels_last", "dilation_rate": [1, 1], "groups": 1, "activation": "linear", "use_bias": false, "kernel_initializer": {"class_name": "HeNormal", "config": {"seed": null}}, "bias_initializer": {"class_name": "Zeros", "config": {}}, "kernel_regularizer": null, "bias_regularizer": null, "activity_regularizer": null, "kernel_constraint": null, "bias_constraint": null}, "name": "stage1_bottleneck2_conv3", "inbound_nodes": [[["stage1_bottleneck2_relu2", 0, 0, {}]]]}, {"class_name": "BatchNormalization", "config": {"name": "stage1_bottleneck2_bn3", "trainable": true, "dtype": "float32", "axis": [3], "momentum": 0.1, "epsilon": 0.001, "center": true, "scale": true, "beta_initializer": {"class_name": "Zeros", "config": {}}, "gamma_initializer": {"class_name": "Ones", "config": {}}, "moving_mean_initializer": {"class_name": "Zeros", "config": {}}, "moving_variance_initializer": {"class_name": "Ones", "config": {}}, "beta_regularizer": null, "gamma_regularizer": null, "beta_constraint": null, "gamma_constraint": null}, "name": "stage1_bottleneck2_bn3", "inbound_nodes": [[["stage1_bottleneck2_conv3", 0, 0, {}]]]}, {"class_name": "Add", "config": {"name": "stage1_bottleneck2_res", "trainable": true, "dtype": "float32"}, "name": "stage1_bottleneck2_res", "inbound_nodes": [[["stage1_bottleneck2_bn3", 0, 0, {}], ["stage1_bottleneck1_out", 0, 0, {}]]]}, {"class_name": "Activation", "config": {"name": "stage1_bottleneck2_out", "trainable": true, "dtype": "float32", "activation": "relu"}, "name": "stage1_bottleneck2_out", "inbound_nodes": [[["stage1_bottleneck2_res", 0, 0, {}]]]}, {"class_name": "Conv2D", "config": {"name": "stage1_bottleneck3_conv1", "trainable": true, "dtype": "float32", "filters": 64, "kernel_size": [1, 1], "strides": [1, 1], "padding": "same", "data_format": "channels_last", "dilation_rate": [1, 1], "groups": 1, "activation": "linear", "use_bias": false, "kernel_initializer": {"class_name": "HeNormal", "config": {"seed": null}}, "bias_initializer": {"class_name": "Zeros", "config": {}}, "kernel_regularizer": null, "bias_regularizer": null, "activity_regularizer": null, "kernel_constraint": null, "bias_constraint": null}, "name": "stage1_bottleneck3_conv1", "inbound_nodes": [[["stage1_bottleneck2_out", 0, 0, {}]]]}, {"class_name": "BatchNormalization", "config": {"name": "stage1_bottleneck3_bn1", "trainable": true, "dtype": "float32", "axis": [3], "momentum": 0.1, "epsilon": 0.001, "center": true, "scale": true, "beta_initializer": {"class_name": "Zeros", "config": {}}, "gamma_initializer": {"class_name": "Ones", "config": {}}, "moving_mean_initializer": {"class_name": "Zeros", "config": {}}, "moving_variance_initializer": {"class_name": "Ones", "config": {}}, "beta_regularizer": null, "gamma_regularizer": null, "beta_constraint": null, "gamma_constraint": null}, "name": "stage1_bottleneck3_bn1", "inbound_nodes": [[["stage1_bottleneck3_conv1", 0, 0, {}]]]}, {"class_name": "Activation", "config": {"name": "stage1_bottleneck3_relu1", "trainable": true, "dtype": "float32", "activation": "relu"}, "name": "stage1_bottleneck3_relu1", "inbound_nodes": [[["stage1_bottleneck3_bn1", 0, 0, {}]]]}, {"class_name": "Conv2D", "config": {"name": "stage1_bottleneck3_conv2", "trainable": true, "dtype": "float32", "filters": 64, "kernel_size": [3, 3], "strides": [1, 1], "padding": "same", "data_format": "channels_last", "dilation_rate": [1, 1], "groups": 1, "activation": "linear", "use_bias": false, "kernel_initializer": {"class_name": "HeNormal", "config": {"seed": null}}, "bias_initializer": {"class_name": "Zeros", "config": {}}, "kernel_regularizer": null, "bias_regularizer": null, "activity_regularizer": null, "kernel_constraint": null, "bias_constraint": null}, "name": "stage1_bottleneck3_conv2", "inbound_nodes": [[["stage1_bottleneck3_relu1", 0, 0, {}]]]}, {"class_name": "BatchNormalization", "config": {"name": "stage1_bottleneck3_bn2", "trainable": true, "dtype": "float32", "axis": [3], "momentum": 0.1, "epsilon": 0.001, "center": true, "scale": true, "beta_initializer": {"class_name": "Zeros", "config": {}}, "gamma_initializer": {"class_name": "Ones", "config": {}}, "moving_mean_initializer": {"class_name": "Zeros", "config": {}}, "moving_variance_initializer": {"class_name": "Ones", "config": {}}, "beta_regularizer": null, "gamma_regularizer": null, "beta_constraint": null, "gamma_constraint": null}, "name": "stage1_bottleneck3_bn2", "inbound_nodes": [[["stage1_bottleneck3_conv2", 0, 0, {}]]]}, {"class_name": "Activation", "config": {"name": "stage1_bottleneck3_relu2", "trainable": true, "dtype": "float32", "activation": "relu"}, "name": "stage1_bottleneck3_relu2", "inbound_nodes": [[["stage1_bottleneck3_bn2", 0, 0, {}]]]}, {"class_name": "Conv2D", "config": {"name": "stage1_bottleneck3_conv3", "trainable": true, "dtype": "float32", "filters": 256, "kernel_size": [1, 1], "strides": [1, 1], "padding": "valid", "data_format": "channels_last", "dilation_rate": [1, 1], "groups": 1, "activation": "linear", "use_bias": false, "kernel_initializer": {"class_name": "HeNormal", "config": {"seed": null}}, "bias_initializer": {"class_name": "Zeros", "config": {}}, "kernel_regularizer": null, "bias_regularizer": null, "activity_regularizer": null, "kernel_constraint": null, "bias_constraint": null}, "name": "stage1_bottleneck3_conv3", "inbound_nodes": [[["stage1_bottleneck3_relu2", 0, 0, {}]]]}, {"class_name": "BatchNormalization", "config": {"name": "stage1_bottleneck3_bn3", "trainable": true, "dtype": "float32", "axis": [3], "momentum": 0.1, "epsilon": 0.001, "center": true, "scale": true, "beta_initializer": {"class_name": "Zeros", "config": {}}, "gamma_initializer": {"class_name": "Ones", "config": {}}, "moving_mean_initializer": {"class_name": "Zeros", "config": {}}, "moving_variance_initializer": {"class_name": "Ones", "config": {}}, "beta_regularizer": null, "gamma_regularizer": null, "beta_constraint": null, "gamma_constraint": null}, "name": "stage1_bottleneck3_bn3", "inbound_nodes": [[["stage1_bottleneck3_conv3", 0, 0, {}]]]}, {"class_name": "Add", "config": {"name": "stage1_bottleneck3_res", "trainable": true, "dtype": "float32"}, "name": "stage1_bottleneck3_res", "inbound_nodes": [[["stage1_bottleneck3_bn3", 0, 0, {}], ["stage1_bottleneck2_out", 0, 0, {}]]]}, {"class_name": "Activation", "config": {"name": "stage1_bottleneck3_out", "trainable": true, "dtype": "float32", "activation": "relu"}, "name": "stage1_bottleneck3_out", "inbound_nodes": [[["stage1_bottleneck3_res", 0, 0, {}]]]}, {"class_name": "Conv2D", "config": {"name": "stage1_bottleneck4_conv1", "trainable": true, "dtype": "float32", "filters": 64, "kernel_size": [1, 1], "strides": [1, 1], "padding": "same", "data_format": "channels_last", "dilation_rate": [1, 1], "groups": 1, "activation": "linear", "use_bias": false, "kernel_initializer": {"class_name": "HeNormal", "config": {"seed": null}}, "bias_initializer": {"class_name": "Zeros", "config": {}}, "kernel_regularizer": null, "bias_regularizer": null, "activity_regularizer": null, "kernel_constraint": null, "bias_constraint": null}, "name": "stage1_bottleneck4_conv1", "inbound_nodes": [[["stage1_bottleneck3_out", 0, 0, {}]]]}, {"class_name": "BatchNormalization", "config": {"name": "stage1_bottleneck4_bn1", "trainable": true, "dtype": "float32", "axis": [3], "momentum": 0.1, "epsilon": 0.001, "center": true, "scale": true, "beta_initializer": {"class_name": "Zeros", "config": {}}, "gamma_initializer": {"class_name": "Ones", "config": {}}, "moving_mean_initializer": {"class_name": "Zeros", "config": {}}, "moving_variance_initializer": {"class_name": "Ones", "config": {}}, "beta_regularizer": null, "gamma_regularizer": null, "beta_constraint": null, "gamma_constraint": null}, "name": "stage1_bottleneck4_bn1", "inbound_nodes": [[["stage1_bottleneck4_conv1", 0, 0, {}]]]}, {"class_name": "Activation", "config": {"name": "stage1_bottleneck4_relu1", "trainable": true, "dtype": "float32", "activation": "relu"}, "name": "stage1_bottleneck4_relu1", "inbound_nodes": [[["stage1_bottleneck4_bn1", 0, 0, {}]]]}, {"class_name": "Conv2D", "config": {"name": "stage1_bottleneck4_conv2", "trainable": true, "dtype": "float32", "filters": 64, "kernel_size": [3, 3], "strides": [1, 1], "padding": "same", "data_format": "channels_last", "dilation_rate": [1, 1], "groups": 1, "activation": "linear", "use_bias": false, "kernel_initializer": {"class_name": "HeNormal", "config": {"seed": null}}, "bias_initializer": {"class_name": "Zeros", "config": {}}, "kernel_regularizer": null, "bias_regularizer": null, "activity_regularizer": null, "kernel_constraint": null, "bias_constraint": null}, "name": "stage1_bottleneck4_conv2", "inbound_nodes": [[["stage1_bottleneck4_relu1", 0, 0, {}]]]}, {"class_name": "BatchNormalization", "config": {"name": "stage1_bottleneck4_bn2", "trainable": true, "dtype": "float32", "axis": [3], "momentum": 0.1, "epsilon": 0.001, "center": true, "scale": true, "beta_initializer": {"class_name": "Zeros", "config": {}}, "gamma_initializer": {"class_name": "Ones", "config": {}}, "moving_mean_initializer": {"class_name": "Zeros", "config": {}}, "moving_variance_initializer": {"class_name": "Ones", "config": {}}, "beta_regularizer": null, "gamma_regularizer": null, "beta_constraint": null, "gamma_constraint": null}, "name": "stage1_bottleneck4_bn2", "inbound_nodes": [[["stage1_bottleneck4_conv2", 0, 0, {}]]]}, {"class_name": "Activation", "config": {"name": "stage1_bottleneck4_relu2", "trainable": true, "dtype": "float32", "activation": "relu"}, "name": "stage1_bottleneck4_relu2", "inbound_nodes": [[["stage1_bottleneck4_bn2", 0, 0, {}]]]}, {"class_name": "Conv2D", "config": {"name": "stage1_bottleneck4_conv3", "trainable": true, "dtype": "float32", "filters": 256, "kernel_size": [1, 1], "strides": [1, 1], "padding": "valid", "data_format": "channels_last", "dilation_rate": [1, 1], "groups": 1, "activation": "linear", "use_bias": false, "kernel_initializer": {"class_name": "HeNormal", "config": {"seed": null}}, "bias_initializer": {"class_name": "Zeros", "config": {}}, "kernel_regularizer": null, "bias_regularizer": null, "activity_regularizer": null, "kernel_constraint": null, "bias_constraint": null}, "name": "stage1_bottleneck4_conv3", "inbound_nodes": [[["stage1_bottleneck4_relu2", 0, 0, {}]]]}, {"class_name": "BatchNormalization", "config": {"name": "stage1_bottleneck4_bn3", "trainable": true, "dtype": "float32", "axis": [3], "momentum": 0.1, "epsilon": 0.001, "center": true, "scale": true, "beta_initializer": {"class_name": "Zeros", "config": {}}, "gamma_initializer": {"class_name": "Ones", "config": {}}, "moving_mean_initializer": {"class_name": "Zeros", "config": {}}, "moving_variance_initializer": {"class_name": "Ones", "config": {}}, "beta_regularizer": null, "gamma_regularizer": null, "beta_constraint": null, "gamma_constraint": null}, "name": "stage1_bottleneck4_bn3", "inbound_nodes": [[["stage1_bottleneck4_conv3", 0, 0, {}]]]}, {"class_name": "Add", "config": {"name": "stage1_bottleneck4_res", "trainable": true, "dtype": "float32"}, "name": "stage1_bottleneck4_res", "inbound_nodes": [[["stage1_bottleneck4_bn3", 0, 0, {}], ["stage1_bottleneck3_out", 0, 0, {}]]]}, {"class_name": "Activation", "config": {"name": "stage1_bottleneck4_out", "trainable": true, "dtype": "float32", "activation": "relu"}, "name": "stage1_bottleneck4_out", "inbound_nodes": [[["stage1_bottleneck4_res", 0, 0, {}]]]}, {"class_name": "Conv2D", "config": {"name": "stage1_transition_conv2", "trainable": true, "dtype": "float32", "filters": 64, "kernel_size": [3, 3], "strides": [2, 2], "padding": "same", "data_format": "channels_last", "dilation_rate": [1, 1], "groups": 1, "activation": "linear", "use_bias": false, "kernel_initializer": {"class_name": "HeNormal", "config": {"seed": null}}, "bias_initializer": {"class_name": "Zeros", "config": {}}, "kernel_regularizer": null, "bias_regularizer": null, "activity_regularizer": null, "kernel_constraint": null, "bias_constraint": null}, "name": "stage1_transition_conv2", "inbound_nodes": [[["stage1_bottleneck4_out", 0, 0, {}]]]}, {"class_name": "BatchNormalization", "config": {"name": "stage1_transition_bn2", "trainable": true, "dtype": "float32", "axis": [3], "momentum": 0.1, "epsilon": 0.001, "center": true, "scale": true, "beta_initializer": {"class_name": "Zeros", "config": {}}, "gamma_initializer": {"class_name": "Ones", "config": {}}, "moving_mean_initializer": {"class_name": "Zeros", "config": {}}, "moving_variance_initializer": {"class_name": "Ones", "config": {}}, "beta_regularizer": null, "gamma_regularizer": null, "beta_constraint": null, "gamma_constraint": null}, "name": "stage1_transition_bn2", "inbound_nodes": [[["stage1_transition_conv2", 0, 0, {}]]]}, {"class_name": "Activation", "config": {"name": "stage1_transition_relu2", "trainable": true, "dtype": "float32", "activation": "relu"}, "name": "stage1_transition_relu2", "inbound_nodes": [[["stage1_transition_bn2", 0, 0, {}]]]}, {"class_name": "Conv2D", "config": {"name": "stage1_transition_conv1", "trainable": true, "dtype": "float32", "filters": 32, "kernel_size": [3, 3], "strides": [1, 1], "padding": "same", "data_format": "channels_last", "dilation_rate": [1, 1], "groups": 1, "activation": "linear", "use_bias": false, "kernel_initializer": {"class_name": "HeNormal", "config": {"seed": null}}, "bias_initializer": {"class_name": "Zeros", "config": {}}, "kernel_regularizer": null, "bias_regularizer": null, "activity_regularizer": null, "kernel_constraint": null, "bias_constraint": null}, "name": "stage1_transition_conv1", "inbound_nodes": [[["stage1_bottleneck4_out", 0, 0, {}]]]}, {"class_name": "Conv2D", "config": {"name": "stage2_branch2_basic1_conv1", "trainable": true, "dtype": "float32", "filters": 64, "kernel_size": [3, 3], "strides": [1, 1], "padding": "same", "data_format": "channels_last", "dilation_rate": [1, 1], "groups": 1, "activation": "linear", "use_bias": false, "kernel_initializer": {"class_name": "HeNormal", "config": {"seed": null}}, "bias_initializer": {"class_name": "Zeros", "config": {}}, "kernel_regularizer": null, "bias_regularizer": null, "activity_regularizer": null, "kernel_constraint": null, "bias_constraint": null}, "name": "stage2_branch2_basic1_conv1", "inbound_nodes": [[["stage1_transition_relu2", 0, 0, {}]]]}, {"class_name": "BatchNormalization", "config": {"name": "stage1_transition_bn1", "trainable": true, "dtype": "float32", "axis": [3], "momentum": 0.1, "epsilon": 0.001, "center": true, "scale": true, "beta_initializer": {"class_name": "Zeros", "config": {}}, "gamma_initializer": {"class_name": "Ones", "config": {}}, "moving_mean_initializer": {"class_name": "Zeros", "config": {}}, "moving_variance_initializer": {"class_name": "Ones", "config": {}}, "beta_regularizer": null, "gamma_regularizer": null, "beta_constraint": null, "gamma_constraint": null}, "name": "stage1_transition_bn1", "inbound_nodes": [[["stage1_transition_conv1", 0, 0, {}]]]}, {"class_name": "BatchNormalization", "config": {"name": "stage2_branch2_basic1_bn1", "trainable": true, "dtype": "float32", "axis": [3], "momentum": 0.1, "epsilon": 0.001, "center": true, "scale": true, "beta_initializer": {"class_name": "Zeros", "config": {}}, "gamma_initializer": {"class_name": "Ones", "config": {}}, "moving_mean_initializer": {"class_name": "Zeros", "config": {}}, "moving_variance_initializer": {"class_name": "Ones", "config": {}}, "beta_regularizer": null, "gamma_regularizer": null, "beta_constraint": null, "gamma_constraint": null}, "name": "stage2_branch2_basic1_bn1", "inbound_nodes": [[["stage2_branch2_basic1_conv1", 0, 0, {}]]]}, {"class_name": "Activation", "config": {"name": "stage1_transition_relu1", "trainable": true, "dtype": "float32", "activation": "relu"}, "name": "stage1_transition_relu1", "inbound_nodes": [[["stage1_transition_bn1", 0, 0, {}]]]}, {"class_name": "Activation", "config": {"name": "stage2_branch2_basic1_relu1", "trainable": true, "dtype": "float32", "activation": "relu"}, "name": "stage2_branch2_basic1_relu1", "inbound_nodes": [[["stage2_branch2_basic1_bn1", 0, 0, {}]]]}, {"class_name": "Conv2D", "config": {"name": "stage2_branch1_basic1_conv1", "trainable": true, "dtype": "float32", "filters": 32, "kernel_size": [3, 3], "strides": [1, 1], "padding": "same", "data_format": "channels_last", "dilation_rate": [1, 1], "groups": 1, "activation": "linear", "use_bias": false, "kernel_initializer": {"class_name": "HeNormal", "config": {"seed": null}}, "bias_initializer": {"class_name": "Zeros", "config": {}}, "kernel_regularizer": null, "bias_regularizer": null, "activity_regularizer": null, "kernel_constraint": null, "bias_constraint": null}, "name": "stage2_branch1_basic1_conv1", "inbound_nodes": [[["stage1_transition_relu1", 0, 0, {}]]]}, {"class_name": "Conv2D", "config": {"name": "stage2_branch2_basic1_conv2", "trainable": true, "dtype": "float32", "filters": 64, "kernel_size": [3, 3], "strides": [1, 1], "padding": "same", "data_format": "channels_last", "dilation_rate": [1, 1], "groups": 1, "activation": "linear", "use_bias": false, "kernel_initializer": {"class_name": "HeNormal", "config": {"seed": null}}, "bias_initializer": {"class_name": "Zeros", "config": {}}, "kernel_regularizer": null, "bias_regularizer": null, "activity_regularizer": null, "kernel_constraint": null, "bias_constraint": null}, "name": "stage2_branch2_basic1_conv2", "inbound_nodes": [[["stage2_branch2_basic1_relu1", 0, 0, {}]]]}, {"class_name": "BatchNormalization", "config": {"name": "stage2_branch1_basic1_bn1", "trainable": true, "dtype": "float32", "axis": [3], "momentum": 0.1, "epsilon": 0.001, "center": true, "scale": true, "beta_initializer": {"class_name": "Zeros", "config": {}}, "gamma_initializer": {"class_name": "Ones", "config": {}}, "moving_mean_initializer": {"class_name": "Zeros", "config": {}}, "moving_variance_initializer": {"class_name": "Ones", "config": {}}, "beta_regularizer": null, "gamma_regularizer": null, "beta_constraint": null, "gamma_constraint": null}, "name": "stage2_branch1_basic1_bn1", "inbound_nodes": [[["stage2_branch1_basic1_conv1", 0, 0, {}]]]}, {"class_name": "BatchNormalization", "config": {"name": "stage2_branch2_basic1_bn2", "trainable": true, "dtype": "float32", "axis": [3], "momentum": 0.1, "epsilon": 0.001, "center": true, "scale": true, "beta_initializer": {"class_name": "Zeros", "config": {}}, "gamma_initializer": {"class_name": "Ones", "config": {}}, "moving_mean_initializer": {"class_name": "Zeros", "config": {}}, "moving_variance_initializer": {"class_name": "Ones", "config": {}}, "beta_regularizer": null, "gamma_regularizer": null, "beta_constraint": null, "gamma_constraint": null}, "name": "stage2_branch2_basic1_bn2", "inbound_nodes": [[["stage2_branch2_basic1_conv2", 0, 0, {}]]]}, {"class_name": "Activation", "config": {"name": "stage2_branch1_basic1_relu1", "trainable": true, "dtype": "float32", "activation": "relu"}, "name": "stage2_branch1_basic1_relu1", "inbound_nodes": [[["stage2_branch1_basic1_bn1", 0, 0, {}]]]}, {"class_name": "Add", "config": {"name": "stage2_branch2_basic1_res", "trainable": true, "dtype": "float32"}, "name": "stage2_branch2_basic1_res", "inbound_nodes": [[["stage2_branch2_basic1_bn2", 0, 0, {}], ["stage1_transition_relu2", 0, 0, {}]]]}, {"class_name": "Conv2D", "config": {"name": "stage2_branch1_basic1_conv2", "trainable": true, "dtype": "float32", "filters": 32, "kernel_size": [3, 3], "strides": [1, 1], "padding": "same", "data_format": "channels_last", "dilation_rate": [1, 1], "groups": 1, "activation": "linear", "use_bias": false, "kernel_initializer": {"class_name": "HeNormal", "config": {"seed": null}}, "bias_initializer": {"class_name": "Zeros", "config": {}}, "kernel_regularizer": null, "bias_regularizer": null, "activity_regularizer": null, "kernel_constraint": null, "bias_constraint": null}, "name": "stage2_branch1_basic1_conv2", "inbound_nodes": [[["stage2_branch1_basic1_relu1", 0, 0, {}]]]}, {"class_name": "Activation", "config": {"name": "stage2_branch2_basic1_out", "trainable": true, "dtype": "float32", "activation": "relu"}, "name": "stage2_branch2_basic1_out", "inbound_nodes": [[["stage2_branch2_basic1_res", 0, 0, {}]]]}, {"class_name": "BatchNormalization", "config": {"name": "stage2_branch1_basic1_bn2", "trainable": true, "dtype": "float32", "axis": [3], "momentum": 0.1, "epsilon": 0.001, "center": true, "scale": true, "beta_initializer": {"class_name": "Zeros", "config": {}}, "gamma_initializer": {"class_name": "Ones", "config": {}}, "moving_mean_initializer": {"class_name": "Zeros", "config": {}}, "moving_variance_initializer": {"class_name": "Ones", "config": {}}, "beta_regularizer": null, "gamma_regularizer": null, "beta_constraint": null, "gamma_constraint": null}, "name": "stage2_branch1_basic1_bn2", "inbound_nodes": [[["stage2_branch1_basic1_conv2", 0, 0, {}]]]}, {"class_name": "Conv2D", "config": {"name": "stage2_branch2_basic2_conv1", "trainable": true, "dtype": "float32", "filters": 64, "kernel_size": [3, 3], "strides": [1, 1], "padding": "same", "data_format": "channels_last", "dilation_rate": [1, 1], "groups": 1, "activation": "linear", "use_bias": false, "kernel_initializer": {"class_name": "HeNormal", "config": {"seed": null}}, "bias_initializer": {"class_name": "Zeros", "config": {}}, "kernel_regularizer": null, "bias_regularizer": null, "activity_regularizer": null, "kernel_constraint": null, "bias_constraint": null}, "name": "stage2_branch2_basic2_conv1", "inbound_nodes": [[["stage2_branch2_basic1_out", 0, 0, {}]]]}, {"class_name": "Add", "config": {"name": "stage2_branch1_basic1_res", "trainable": true, "dtype": "float32"}, "name": "stage2_branch1_basic1_res", "inbound_nodes": [[["stage2_branch1_basic1_bn2", 0, 0, {}], ["stage1_transition_relu1", 0, 0, {}]]]}, {"class_name": "BatchNormalization", "config": {"name": "stage2_branch2_basic2_bn1", "trainable": true, "dtype": "float32", "axis": [3], "momentum": 0.1, "epsilon": 0.001, "center": true, "scale": true, "beta_initializer": {"class_name": "Zeros", "config": {}}, "gamma_initializer": {"class_name": "Ones", "config": {}}, "moving_mean_initializer": {"class_name": "Zeros", "config": {}}, "moving_variance_initializer": {"class_name": "Ones", "config": {}}, "beta_regularizer": null, "gamma_regularizer": null, "beta_constraint": null, "gamma_constraint": null}, "name": "stage2_branch2_basic2_bn1", "inbound_nodes": [[["stage2_branch2_basic2_conv1", 0, 0, {}]]]}, {"class_name": "Activation", "config": {"name": "stage2_branch1_basic1_out", "trainable": true, "dtype": "float32", "activation": "relu"}, "name": "stage2_branch1_basic1_out", "inbound_nodes": [[["stage2_branch1_basic1_res", 0, 0, {}]]]}, {"class_name": "Activation", "config": {"name": "stage2_branch2_basic2_relu1", "trainable": true, "dtype": "float32", "activation": "relu"}, "name": "stage2_branch2_basic2_relu1", "inbound_nodes": [[["stage2_branch2_basic2_bn1", 0, 0, {}]]]}, {"class_name": "Conv2D", "config": {"name": "stage2_branch1_basic2_conv1", "trainable": true, "dtype": "float32", "filters": 32, "kernel_size": [3, 3], "strides": [1, 1], "padding": "same", "data_format": "channels_last", "dilation_rate": [1, 1], "groups": 1, "activation": "linear", "use_bias": false, "kernel_initializer": {"class_name": "HeNormal", "config": {"seed": null}}, "bias_initializer": {"class_name": "Zeros", "config": {}}, "kernel_regularizer": null, "bias_regularizer": null, "activity_regularizer": null, "kernel_constraint": null, "bias_constraint": null}, "name": "stage2_branch1_basic2_conv1", "inbound_nodes": [[["stage2_branch1_basic1_out", 0, 0, {}]]]}, {"class_name": "Conv2D", "config": {"name": "stage2_branch2_basic2_conv2", "trainable": true, "dtype": "float32", "filters": 64, "kernel_size": [3, 3], "strides": [1, 1], "padding": "same", "data_format": "channels_last", "dilation_rate": [1, 1], "groups": 1, "activation": "linear", "use_bias": false, "kernel_initializer": {"class_name": "HeNormal", "config": {"seed": null}}, "bias_initializer": {"class_name": "Zeros", "config": {}}, "kernel_regularizer": null, "bias_regularizer": null, "activity_regularizer": null, "kernel_constraint": null, "bias_constraint": null}, "name": "stage2_branch2_basic2_conv2", "inbound_nodes": [[["stage2_branch2_basic2_relu1", 0, 0, {}]]]}, {"class_name": "BatchNormalization", "config": {"name": "stage2_branch1_basic2_bn1", "trainable": true, "dtype": "float32", "axis": [3], "momentum": 0.1, "epsilon": 0.001, "center": true, "scale": true, "beta_initializer": {"class_name": "Zeros", "config": {}}, "gamma_initializer": {"class_name": "Ones", "config": {}}, "moving_mean_initializer": {"class_name": "Zeros", "config": {}}, "moving_variance_initializer": {"class_name": "Ones", "config": {}}, "beta_regularizer": null, "gamma_regularizer": null, "beta_constraint": null, "gamma_constraint": null}, "name": "stage2_branch1_basic2_bn1", "inbound_nodes": [[["stage2_branch1_basic2_conv1", 0, 0, {}]]]}, {"class_name": "BatchNormalization", "config": {"name": "stage2_branch2_basic2_bn2", "trainable": true, "dtype": "float32", "axis": [3], "momentum": 0.1, "epsilon": 0.001, "center": true, "scale": true, "beta_initializer": {"class_name": "Zeros", "config": {}}, "gamma_initializer": {"class_name": "Ones", "config": {}}, "moving_mean_initializer": {"class_name": "Zeros", "config": {}}, "moving_variance_initializer": {"class_name": "Ones", "config": {}}, "beta_regularizer": null, "gamma_regularizer": null, "beta_constraint": null, "gamma_constraint": null}, "name": "stage2_branch2_basic2_bn2", "inbound_nodes": [[["stage2_branch2_basic2_conv2", 0, 0, {}]]]}, {"class_name": "Activation", "config": {"name": "stage2_branch1_basic2_relu1", "trainable": true, "dtype": "float32", "activation": "relu"}, "name": "stage2_branch1_basic2_relu1", "inbound_nodes": [[["stage2_branch1_basic2_bn1", 0, 0, {}]]]}, {"class_name": "Add", "config": {"name": "stage2_branch2_basic2_res", "trainable": true, "dtype": "float32"}, "name": "stage2_branch2_basic2_res", "inbound_nodes": [[["stage2_branch2_basic2_bn2", 0, 0, {}], ["stage2_branch2_basic1_out", 0, 0, {}]]]}, {"class_name": "Conv2D", "config": {"name": "stage2_branch1_basic2_conv2", "trainable": true, "dtype": "float32", "filters": 32, "kernel_size": [3, 3], "strides": [1, 1], "padding": "same", "data_format": "channels_last", "dilation_rate": [1, 1], "groups": 1, "activation": "linear", "use_bias": false, "kernel_initializer": {"class_name": "HeNormal", "config": {"seed": null}}, "bias_initializer": {"class_name": "Zeros", "config": {}}, "kernel_regularizer": null, "bias_regularizer": null, "activity_regularizer": null, "kernel_constraint": null, "bias_constraint": null}, "name": "stage2_branch1_basic2_conv2", "inbound_nodes": [[["stage2_branch1_basic2_relu1", 0, 0, {}]]]}, {"class_name": "Activation", "config": {"name": "stage2_branch2_basic2_out", "trainable": true, "dtype": "float32", "activation": "relu"}, "name": "stage2_branch2_basic2_out", "inbound_nodes": [[["stage2_branch2_basic2_res", 0, 0, {}]]]}, {"class_name": "BatchNormalization", "config": {"name": "stage2_branch1_basic2_bn2", "trainable": true, "dtype": "float32", "axis": [3], "momentum": 0.1, "epsilon": 0.001, "center": true, "scale": true, "beta_initializer": {"class_name": "Zeros", "config": {}}, "gamma_initializer": {"class_name": "Ones", "config": {}}, "moving_mean_initializer": {"class_name": "Zeros", "config": {}}, "moving_variance_initializer": {"class_name": "Ones", "config": {}}, "beta_regularizer": null, "gamma_regularizer": null, "beta_constraint": null, "gamma_constraint": null}, "name": "stage2_branch1_basic2_bn2", "inbound_nodes": [[["stage2_branch1_basic2_conv2", 0, 0, {}]]]}, {"class_name": "Conv2D", "config": {"name": "stage2_branch2_basic3_conv1", "trainable": true, "dtype": "float32", "filters": 64, "kernel_size": [3, 3], "strides": [1, 1], "padding": "same", "data_format": "channels_last", "dilation_rate": [1, 1], "groups": 1, "activation": "linear", "use_bias": false, "kernel_initializer": {"class_name": "HeNormal", "config": {"seed": null}}, "bias_initializer": {"class_name": "Zeros", "config": {}}, "kernel_regularizer": null, "bias_regularizer": null, "activity_regularizer": null, "kernel_constraint": null, "bias_constraint": null}, "name": "stage2_branch2_basic3_conv1", "inbound_nodes": [[["stage2_branch2_basic2_out", 0, 0, {}]]]}, {"class_name": "Add", "config": {"name": "stage2_branch1_basic2_res", "trainable": true, "dtype": "float32"}, "name": "stage2_branch1_basic2_res", "inbound_nodes": [[["stage2_branch1_basic2_bn2", 0, 0, {}], ["stage2_branch1_basic1_out", 0, 0, {}]]]}, {"class_name": "BatchNormalization", "config": {"name": "stage2_branch2_basic3_bn1", "trainable": true, "dtype": "float32", "axis": [3], "momentum": 0.1, "epsilon": 0.001, "center": true, "scale": true, "beta_initializer": {"class_name": "Zeros", "config": {}}, "gamma_initializer": {"class_name": "Ones", "config": {}}, "moving_mean_initializer": {"class_name": "Zeros", "config": {}}, "moving_variance_initializer": {"class_name": "Ones", "config": {}}, "beta_regularizer": null, "gamma_regularizer": null, "beta_constraint": null, "gamma_constraint": null}, "name": "stage2_branch2_basic3_bn1", "inbound_nodes": [[["stage2_branch2_basic3_conv1", 0, 0, {}]]]}, {"class_name": "Activation", "config": {"name": "stage2_branch1_basic2_out", "trainable": true, "dtype": "float32", "activation": "relu"}, "name": "stage2_branch1_basic2_out", "inbound_nodes": [[["stage2_branch1_basic2_res", 0, 0, {}]]]}, {"class_name": "Activation", "config": {"name": "stage2_branch2_basic3_relu1", "trainable": true, "dtype": "float32", "activation": "relu"}, "name": "stage2_branch2_basic3_relu1", "inbound_nodes": [[["stage2_branch2_basic3_bn1", 0, 0, {}]]]}, {"class_name": "Conv2D", "config": {"name": "stage2_branch1_basic3_conv1", "trainable": true, "dtype": "float32", "filters": 32, "kernel_size": [3, 3], "strides": [1, 1], "padding": "same", "data_format": "channels_last", "dilation_rate": [1, 1], "groups": 1, "activation": "linear", "use_bias": false, "kernel_initializer": {"class_name": "HeNormal", "config": {"seed": null}}, "bias_initializer": {"class_name": "Zeros", "config": {}}, "kernel_regularizer": null, "bias_regularizer": null, "activity_regularizer": null, "kernel_constraint": null, "bias_constraint": null}, "name": "stage2_branch1_basic3_conv1", "inbound_nodes": [[["stage2_branch1_basic2_out", 0, 0, {}]]]}, {"class_name": "Conv2D", "config": {"name": "stage2_branch2_basic3_conv2", "trainable": true, "dtype": "float32", "filters": 64, "kernel_size": [3, 3], "strides": [1, 1], "padding": "same", "data_format": "channels_last", "dilation_rate": [1, 1], "groups": 1, "activation": "linear", "use_bias": false, "kernel_initializer": {"class_name": "HeNormal", "config": {"seed": null}}, "bias_initializer": {"class_name": "Zeros", "config": {}}, "kernel_regularizer": null, "bias_regularizer": null, "activity_regularizer": null, "kernel_constraint": null, "bias_constraint": null}, "name": "stage2_branch2_basic3_conv2", "inbound_nodes": [[["stage2_branch2_basic3_relu1", 0, 0, {}]]]}, {"class_name": "BatchNormalization", "config": {"name": "stage2_branch1_basic3_bn1", "trainable": true, "dtype": "float32", "axis": [3], "momentum": 0.1, "epsilon": 0.001, "center": true, "scale": true, "beta_initializer": {"class_name": "Zeros", "config": {}}, "gamma_initializer": {"class_name": "Ones", "config": {}}, "moving_mean_initializer": {"class_name": "Zeros", "config": {}}, "moving_variance_initializer": {"class_name": "Ones", "config": {}}, "beta_regularizer": null, "gamma_regularizer": null, "beta_constraint": null, "gamma_constraint": null}, "name": "stage2_branch1_basic3_bn1", "inbound_nodes": [[["stage2_branch1_basic3_conv1", 0, 0, {}]]]}, {"class_name": "BatchNormalization", "config": {"name": "stage2_branch2_basic3_bn2", "trainable": true, "dtype": "float32", "axis": [3], "momentum": 0.1, "epsilon": 0.001, "center": true, "scale": true, "beta_initializer": {"class_name": "Zeros", "config": {}}, "gamma_initializer": {"class_name": "Ones", "config": {}}, "moving_mean_initializer": {"class_name": "Zeros", "config": {}}, "moving_variance_initializer": {"class_name": "Ones", "config": {}}, "beta_regularizer": null, "gamma_regularizer": null, "beta_constraint": null, "gamma_constraint": null}, "name": "stage2_branch2_basic3_bn2", "inbound_nodes": [[["stage2_branch2_basic3_conv2", 0, 0, {}]]]}, {"class_name": "Activation", "config": {"name": "stage2_branch1_basic3_relu1", "trainable": true, "dtype": "float32", "activation": "relu"}, "name": "stage2_branch1_basic3_relu1", "inbound_nodes": [[["stage2_branch1_basic3_bn1", 0, 0, {}]]]}, {"class_name": "Add", "config": {"name": "stage2_branch2_basic3_res", "trainable": true, "dtype": "float32"}, "name": "stage2_branch2_basic3_res", "inbound_nodes": [[["stage2_branch2_basic3_bn2", 0, 0, {}], ["stage2_branch2_basic2_out", 0, 0, {}]]]}, {"class_name": "Conv2D", "config": {"name": "stage2_branch1_basic3_conv2", "trainable": true, "dtype": "float32", "filters": 32, "kernel_size": [3, 3], "strides": [1, 1], "padding": "same", "data_format": "channels_last", "dilation_rate": [1, 1], "groups": 1, "activation": "linear", "use_bias": false, "kernel_initializer": {"class_name": "HeNormal", "config": {"seed": null}}, "bias_initializer": {"class_name": "Zeros", "config": {}}, "kernel_regularizer": null, "bias_regularizer": null, "activity_regularizer": null, "kernel_constraint": null, "bias_constraint": null}, "name": "stage2_branch1_basic3_conv2", "inbound_nodes": [[["stage2_branch1_basic3_relu1", 0, 0, {}]]]}, {"class_name": "Activation", "config": {"name": "stage2_branch2_basic3_out", "trainable": true, "dtype": "float32", "activation": "relu"}, "name": "stage2_branch2_basic3_out", "inbound_nodes": [[["stage2_branch2_basic3_res", 0, 0, {}]]]}, {"class_name": "BatchNormalization", "config": {"name": "stage2_branch1_basic3_bn2", "trainable": true, "dtype": "float32", "axis": [3], "momentum": 0.1, "epsilon": 0.001, "center": true, "scale": true, "beta_initializer": {"class_name": "Zeros", "config": {}}, "gamma_initializer": {"class_name": "Ones", "config": {}}, "moving_mean_initializer": {"class_name": "Zeros", "config": {}}, "moving_variance_initializer": {"class_name": "Ones", "config": {}}, "beta_regularizer": null, "gamma_regularizer": null, "beta_constraint": null, "gamma_constraint": null}, "name": "stage2_branch1_basic3_bn2", "inbound_nodes": [[["stage2_branch1_basic3_conv2", 0, 0, {}]]]}, {"class_name": "Conv2D", "config": {"name": "stage2_branch2_basic4_conv1", "trainable": true, "dtype": "float32", "filters": 64, "kernel_size": [3, 3], "strides": [1, 1], "padding": "same", "data_format": "channels_last", "dilation_rate": [1, 1], "groups": 1, "activation": "linear", "use_bias": false, "kernel_initializer": {"class_name": "HeNormal", "config": {"seed": null}}, "bias_initializer": {"class_name": "Zeros", "config": {}}, "kernel_regularizer": null, "bias_regularizer": null, "activity_regularizer": null, "kernel_constraint": null, "bias_constraint": null}, "name": "stage2_branch2_basic4_conv1", "inbound_nodes": [[["stage2_branch2_basic3_out", 0, 0, {}]]]}, {"class_name": "Add", "config": {"name": "stage2_branch1_basic3_res", "trainable": true, "dtype": "float32"}, "name": "stage2_branch1_basic3_res", "inbound_nodes": [[["stage2_branch1_basic3_bn2", 0, 0, {}], ["stage2_branch1_basic2_out", 0, 0, {}]]]}, {"class_name": "BatchNormalization", "config": {"name": "stage2_branch2_basic4_bn1", "trainable": true, "dtype": "float32", "axis": [3], "momentum": 0.1, "epsilon": 0.001, "center": true, "scale": true, "beta_initializer": {"class_name": "Zeros", "config": {}}, "gamma_initializer": {"class_name": "Ones", "config": {}}, "moving_mean_initializer": {"class_name": "Zeros", "config": {}}, "moving_variance_initializer": {"class_name": "Ones", "config": {}}, "beta_regularizer": null, "gamma_regularizer": null, "beta_constraint": null, "gamma_constraint": null}, "name": "stage2_branch2_basic4_bn1", "inbound_nodes": [[["stage2_branch2_basic4_conv1", 0, 0, {}]]]}, {"class_name": "Activation", "config": {"name": "stage2_branch1_basic3_out", "trainable": true, "dtype": "float32", "activation": "relu"}, "name": "stage2_branch1_basic3_out", "inbound_nodes": [[["stage2_branch1_basic3_res", 0, 0, {}]]]}, {"class_name": "Activation", "config": {"name": "stage2_branch2_basic4_relu1", "trainable": true, "dtype": "float32", "activation": "relu"}, "name": "stage2_branch2_basic4_relu1", "inbound_nodes": [[["stage2_branch2_basic4_bn1", 0, 0, {}]]]}, {"class_name": "Conv2D", "config": {"name": "stage2_branch1_basic4_conv1", "trainable": true, "dtype": "float32", "filters": 32, "kernel_size": [3, 3], "strides": [1, 1], "padding": "same", "data_format": "channels_last", "dilation_rate": [1, 1], "groups": 1, "activation": "linear", "use_bias": false, "kernel_initializer": {"class_name": "HeNormal", "config": {"seed": null}}, "bias_initializer": {"class_name": "Zeros", "config": {}}, "kernel_regularizer": null, "bias_regularizer": null, "activity_regularizer": null, "kernel_constraint": null, "bias_constraint": null}, "name": "stage2_branch1_basic4_conv1", "inbound_nodes": [[["stage2_branch1_basic3_out", 0, 0, {}]]]}, {"class_name": "Conv2D", "config": {"name": "stage2_branch2_basic4_conv2", "trainable": true, "dtype": "float32", "filters": 64, "kernel_size": [3, 3], "strides": [1, 1], "padding": "same", "data_format": "channels_last", "dilation_rate": [1, 1], "groups": 1, "activation": "linear", "use_bias": false, "kernel_initializer": {"class_name": "HeNormal", "config": {"seed": null}}, "bias_initializer": {"class_name": "Zeros", "config": {}}, "kernel_regularizer": null, "bias_regularizer": null, "activity_regularizer": null, "kernel_constraint": null, "bias_constraint": null}, "name": "stage2_branch2_basic4_conv2", "inbound_nodes": [[["stage2_branch2_basic4_relu1", 0, 0, {}]]]}, {"class_name": "BatchNormalization", "config": {"name": "stage2_branch1_basic4_bn1", "trainable": true, "dtype": "float32", "axis": [3], "momentum": 0.1, "epsilon": 0.001, "center": true, "scale": true, "beta_initializer": {"class_name": "Zeros", "config": {}}, "gamma_initializer": {"class_name": "Ones", "config": {}}, "moving_mean_initializer": {"class_name": "Zeros", "config": {}}, "moving_variance_initializer": {"class_name": "Ones", "config": {}}, "beta_regularizer": null, "gamma_regularizer": null, "beta_constraint": null, "gamma_constraint": null}, "name": "stage2_branch1_basic4_bn1", "inbound_nodes": [[["stage2_branch1_basic4_conv1", 0, 0, {}]]]}, {"class_name": "BatchNormalization", "config": {"name": "stage2_branch2_basic4_bn2", "trainable": true, "dtype": "float32", "axis": [3], "momentum": 0.1, "epsilon": 0.001, "center": true, "scale": true, "beta_initializer": {"class_name": "Zeros", "config": {}}, "gamma_initializer": {"class_name": "Ones", "config": {}}, "moving_mean_initializer": {"class_name": "Zeros", "config": {}}, "moving_variance_initializer": {"class_name": "Ones", "config": {}}, "beta_regularizer": null, "gamma_regularizer": null, "beta_constraint": null, "gamma_constraint": null}, "name": "stage2_branch2_basic4_bn2", "inbound_nodes": [[["stage2_branch2_basic4_conv2", 0, 0, {}]]]}, {"class_name": "Activation", "config": {"name": "stage2_branch1_basic4_relu1", "trainable": true, "dtype": "float32", "activation": "relu"}, "name": "stage2_branch1_basic4_relu1", "inbound_nodes": [[["stage2_branch1_basic4_bn1", 0, 0, {}]]]}, {"class_name": "Add", "config": {"name": "stage2_branch2_basic4_res", "trainable": true, "dtype": "float32"}, "name": "stage2_branch2_basic4_res", "inbound_nodes": [[["stage2_branch2_basic4_bn2", 0, 0, {}], ["stage2_branch2_basic3_out", 0, 0, {}]]]}, {"class_name": "Conv2D", "config": {"name": "stage2_branch1_basic4_conv2", "trainable": true, "dtype": "float32", "filters": 32, "kernel_size": [3, 3], "strides": [1, 1], "padding": "same", "data_format": "channels_last", "dilation_rate": [1, 1], "groups": 1, "activation": "linear", "use_bias": false, "kernel_initializer": {"class_name": "HeNormal", "config": {"seed": null}}, "bias_initializer": {"class_name": "Zeros", "config": {}}, "kernel_regularizer": null, "bias_regularizer": null, "activity_regularizer": null, "kernel_constraint": null, "bias_constraint": null}, "name": "stage2_branch1_basic4_conv2", "inbound_nodes": [[["stage2_branch1_basic4_relu1", 0, 0, {}]]]}, {"class_name": "Activation", "config": {"name": "stage2_branch2_basic4_out", "trainable": true, "dtype": "float32", "activation": "relu"}, "name": "stage2_branch2_basic4_out", "inbound_nodes": [[["stage2_branch2_basic4_res", 0, 0, {}]]]}, {"class_name": "BatchNormalization", "config": {"name": "stage2_branch1_basic4_bn2", "trainable": true, "dtype": "float32", "axis": [3], "momentum": 0.1, "epsilon": 0.001, "center": true, "scale": true, "beta_initializer": {"class_name": "Zeros", "config": {}}, "gamma_initializer": {"class_name": "Ones", "config": {}}, "moving_mean_initializer": {"class_name": "Zeros", "config": {}}, "moving_variance_initializer": {"class_name": "Ones", "config": {}}, "beta_regularizer": null, "gamma_regularizer": null, "beta_constraint": null, "gamma_constraint": null}, "name": "stage2_branch1_basic4_bn2", "inbound_nodes": [[["stage2_branch1_basic4_conv2", 0, 0, {}]]]}, {"class_name": "Conv2D", "config": {"name": "stage2_fuse_conv_2_1", "trainable": true, "dtype": "float32", "filters": 32, "kernel_size": [1, 1], "strides": [1, 1], "padding": "valid", "data_format": "channels_last", "dilation_rate": [1, 1], "groups": 1, "activation": "linear", "use_bias": false, "kernel_initializer": {"class_name": "HeNormal", "config": {"seed": null}}, "bias_initializer": {"class_name": "Zeros", "config": {}}, "kernel_regularizer": null, "bias_regularizer": null, "activity_regularizer": null, "kernel_constraint": null, "bias_constraint": null}, "name": "stage2_fuse_conv_2_1", "inbound_nodes": [[["stage2_branch2_basic4_out", 0, 0, {}]]]}, {"class_name": "Add", "config": {"name": "stage2_branch1_basic4_res", "trainable": true, "dtype": "float32"}, "name": "stage2_branch1_basic4_res", "inbound_nodes": [[["stage2_branch1_basic4_bn2", 0, 0, {}], ["stage2_branch1_basic3_out", 0, 0, {}]]]}, {"class_name": "BatchNormalization", "config": {"name": "stage2_fuse_bn_2_1", "trainable": true, "dtype": "float32", "axis": [3], "momentum": 0.1, "epsilon": 0.001, "center": true, "scale": true, "beta_initializer": {"class_name": "Zeros", "config": {}}, "gamma_initializer": {"class_name": "Ones", "config": {}}, "moving_mean_initializer": {"class_name": "Zeros", "config": {}}, "moving_variance_initializer": {"class_name": "Ones", "config": {}}, "beta_regularizer": null, "gamma_regularizer": null, "beta_constraint": null, "gamma_constraint": null}, "name": "stage2_fuse_bn_2_1", "inbound_nodes": [[["stage2_fuse_conv_2_1", 0, 0, {}]]]}, {"class_name": "Activation", "config": {"name": "stage2_branch1_basic4_out", "trainable": true, "dtype": "float32", "activation": "relu"}, "name": "stage2_branch1_basic4_out", "inbound_nodes": [[["stage2_branch1_basic4_res", 0, 0, {}]]]}, {"class_name": "UpSampling2D", "config": {"name": "stage2_fuse_up2_1", "trainable": true, "dtype": "float32", "size": [2, 2], "data_format": "channels_last", "interpolation": "nearest"}, "name": "stage2_fuse_up2_1", "inbound_nodes": [[["stage2_fuse_bn_2_1", 0, 0, {}]]]}, {"class_name": "Add", "config": {"name": "stage2_fuse_add1", "trainable": true, "dtype": "float32"}, "name": "stage2_fuse_add1", "inbound_nodes": [[["stage2_branch1_basic4_out", 0, 0, {}], ["stage2_fuse_up2_1", 0, 0, {}]]]}, {"class_name": "Activation", "config": {"name": "stage2_fuse_branch1_out", "trainable": true, "dtype": "float32", "activation": "relu"}, "name": "stage2_fuse_branch1_out", "inbound_nodes": [[["stage2_fuse_add1", 0, 0, {}]]]}, {"class_name": "Conv2D", "config": {"name": "stage2_fuse_conv1_2", "trainable": true, "dtype": "float32", "filters": 64, "kernel_size": [3, 3], "strides": [2, 2], "padding": "same", "data_format": "channels_last", "dilation_rate": [1, 1], "groups": 1, "activation": "linear", "use_bias": false, "kernel_initializer": {"class_name": "HeNormal", "config": {"seed": null}}, "bias_initializer": {"class_name": "Zeros", "config": {}}, "kernel_regularizer": null, "bias_regularizer": null, "activity_regularizer": null, "kernel_constraint": null, "bias_constraint": null}, "name": "stage2_fuse_conv1_2", "inbound_nodes": [[["stage2_fuse_branch1_out", 0, 0, {}]]]}, {"class_name": "BatchNormalization", "config": {"name": "stage2_fuse_bn1_2", "trainable": true, "dtype": "float32", "axis": [3], "momentum": 0.1, "epsilon": 0.001, "center": true, "scale": true, "beta_initializer": {"class_name": "Zeros", "config": {}}, "gamma_initializer": {"class_name": "Ones", "config": {}}, "moving_mean_initializer": {"class_name": "Zeros", "config": {}}, "moving_variance_initializer": {"class_name": "Ones", "config": {}}, "beta_regularizer": null, "gamma_regularizer": null, "beta_constraint": null, "gamma_constraint": null}, "name": "stage2_fuse_bn1_2", "inbound_nodes": [[["stage2_fuse_conv1_2", 0, 0, {}]]]}, {"class_name": "Add", "config": {"name": "stage2_fuse_add2", "trainable": true, "dtype": "float32"}, "name": "stage2_fuse_add2", "inbound_nodes": [[["stage2_fuse_bn1_2", 0, 0, {}], ["stage2_branch2_basic4_out", 0, 0, {}]]]}, {"class_name": "Activation", "config": {"name": "stage2_fuse_branch2_out", "trainable": true, "dtype": "float32", "activation": "relu"}, "name": "stage2_fuse_branch2_out", "inbound_nodes": [[["stage2_fuse_add2", 0, 0, {}]]]}, {"class_name": "Conv2D", "config": {"name": "stage2_transition_conv2", "trainable": true, "dtype": "float32", "filters": 64, "kernel_size": [3, 3], "strides": [1, 1], "padding": "same", "data_format": "channels_last", "dilation_rate": [1, 1], "groups": 1, "activation": "linear", "use_bias": false, "kernel_initializer": {"class_name": "HeNormal", "config": {"seed": null}}, "bias_initializer": {"class_name": "Zeros", "config": {}}, "kernel_regularizer": null, "bias_regularizer": null, "activity_regularizer": null, "kernel_constraint": null, "bias_constraint": null}, "name": "stage2_transition_conv2", "inbound_nodes": [[["stage2_fuse_branch2_out", 0, 0, {}]]]}, {"class_name": "Conv2D", "config": {"name": "stage2_transition_conv3", "trainable": true, "dtype": "float32", "filters": 128, "kernel_size": [3, 3], "strides": [2, 2], "padding": "same", "data_format": "channels_last", "dilation_rate": [1, 1], "groups": 1, "activation": "linear", "use_bias": false, "kernel_initializer": {"class_name": "HeNormal", "config": {"seed": null}}, "bias_initializer": {"class_name": "Zeros", "config": {}}, "kernel_regularizer": null, "bias_regularizer": null, "activity_regularizer": null, "kernel_constraint": null, "bias_constraint": null}, "name": "stage2_transition_conv3", "inbound_nodes": [[["stage2_fuse_branch2_out", 0, 0, {}]]]}, {"class_name": "BatchNormalization", "config": {"name": "stage2_transition_bn2", "trainable": true, "dtype": "float32", "axis": [3], "momentum": 0.1, "epsilon": 0.001, "center": true, "scale": true, "beta_initializer": {"class_name": "Zeros", "config": {}}, "gamma_initializer": {"class_name": "Ones", "config": {}}, "moving_mean_initializer": {"class_name": "Zeros", "config": {}}, "moving_variance_initializer": {"class_name": "Ones", "config": {}}, "beta_regularizer": null, "gamma_regularizer": null, "beta_constraint": null, "gamma_constraint": null}, "name": "stage2_transition_bn2", "inbound_nodes": [[["stage2_transition_conv2", 0, 0, {}]]]}, {"class_name": "BatchNormalization", "config": {"name": "stage2_transition_bn3", "trainable": true, "dtype": "float32", "axis": [3], "momentum": 0.1, "epsilon": 0.001, "center": true, "scale": true, "beta_initializer": {"class_name": "Zeros", "config": {}}, "gamma_initializer": {"class_name": "Ones", "config": {}}, "moving_mean_initializer": {"class_name": "Zeros", "config": {}}, "moving_variance_initializer": {"class_name": "Ones", "config": {}}, "beta_regularizer": null, "gamma_regularizer": null, "beta_constraint": null, "gamma_constraint": null}, "name": "stage2_transition_bn3", "inbound_nodes": [[["stage2_transition_conv3", 0, 0, {}]]]}, {"class_name": "Activation", "config": {"name": "stage2_transition_relu2", "trainable": true, "dtype": "float32", "activation": "relu"}, "name": "stage2_transition_relu2", "inbound_nodes": [[["stage2_transition_bn2", 0, 0, {}]]]}, {"class_name": "Activation", "config": {"name": "stage2_transition_relu3", "trainable": true, "dtype": "float32", "activation": "relu"}, "name": "stage2_transition_relu3", "inbound_nodes": [[["stage2_transition_bn3", 0, 0, {}]]]}, {"class_name": "Conv2D", "config": {"name": "stage2_transition_conv1", "trainable": true, "dtype": "float32", "filters": 32, "kernel_size": [3, 3], "strides": [1, 1], "padding": "same", "data_format": "channels_last", "dilation_rate": [1, 1], "groups": 1, "activation": "linear", "use_bias": false, "kernel_initializer": {"class_name": "HeNormal", "config": {"seed": null}}, "bias_initializer": {"class_name": "Zeros", "config": {}}, "kernel_regularizer": null, "bias_regularizer": null, "activity_regularizer": null, "kernel_constraint": null, "bias_constraint": null}, "name": "stage2_transition_conv1", "inbound_nodes": [[["stage2_fuse_branch1_out", 0, 0, {}]]]}, {"class_name": "Conv2D", "config": {"name": "stage3_1_branch2_basic1_conv1", "trainable": true, "dtype": "float32", "filters": 64, "kernel_size": [3, 3], "strides": [1, 1], "padding": "same", "data_format": "channels_last", "dilation_rate": [1, 1], "groups": 1, "activation": "linear", "use_bias": false, "kernel_initializer": {"class_name": "HeNormal", "config": {"seed": null}}, "bias_initializer": {"class_name": "Zeros", "config": {}}, "kernel_regularizer": null, "bias_regularizer": null, "activity_regularizer": null, "kernel_constraint": null, "bias_constraint": null}, "name": "stage3_1_branch2_basic1_conv1", "inbound_nodes": [[["stage2_transition_relu2", 0, 0, {}]]]}, {"class_name": "Conv2D", "config": {"name": "stage3_1_branch3_basic1_conv1", "trainable": true, "dtype": "float32", "filters": 128, "kernel_size": [3, 3], "strides": [1, 1], "padding": "same", "data_format": "channels_last", "dilation_rate": [1, 1], "groups": 1, "activation": "linear", "use_bias": false, "kernel_initializer": {"class_name": "HeNormal", "config": {"seed": null}}, "bias_initializer": {"class_name": "Zeros", "config": {}}, "kernel_regularizer": null, "bias_regularizer": null, "activity_regularizer": null, "kernel_constraint": null, "bias_constraint": null}, "name": "stage3_1_branch3_basic1_conv1", "inbound_nodes": [[["stage2_transition_relu3", 0, 0, {}]]]}, {"class_name": "BatchNormalization", "config": {"name": "stage2_transition_bn1", "trainable": true, "dtype": "float32", "axis": [3], "momentum": 0.1, "epsilon": 0.001, "center": true, "scale": true, "beta_initializer": {"class_name": "Zeros", "config": {}}, "gamma_initializer": {"class_name": "Ones", "config": {}}, "moving_mean_initializer": {"class_name": "Zeros", "config": {}}, "moving_variance_initializer": {"class_name": "Ones", "config": {}}, "beta_regularizer": null, "gamma_regularizer": null, "beta_constraint": null, "gamma_constraint": null}, "name": "stage2_transition_bn1", "inbound_nodes": [[["stage2_transition_conv1", 0, 0, {}]]]}, {"class_name": "BatchNormalization", "config": {"name": "stage3_1_branch2_basic1_bn1", "trainable": true, "dtype": "float32", "axis": [3], "momentum": 0.1, "epsilon": 0.001, "center": true, "scale": true, "beta_initializer": {"class_name": "Zeros", "config": {}}, "gamma_initializer": {"class_name": "Ones", "config": {}}, "moving_mean_initializer": {"class_name": "Zeros", "config": {}}, "moving_variance_initializer": {"class_name": "Ones", "config": {}}, "beta_regularizer": null, "gamma_regularizer": null, "beta_constraint": null, "gamma_constraint": null}, "name": "stage3_1_branch2_basic1_bn1", "inbound_nodes": [[["stage3_1_branch2_basic1_conv1", 0, 0, {}]]]}, {"class_name": "BatchNormalization", "config": {"name": "stage3_1_branch3_basic1_bn1", "trainable": true, "dtype": "float32", "axis": [3], "momentum": 0.1, "epsilon": 0.001, "center": true, "scale": true, "beta_initializer": {"class_name": "Zeros", "config": {}}, "gamma_initializer": {"class_name": "Ones", "config": {}}, "moving_mean_initializer": {"class_name": "Zeros", "config": {}}, "moving_variance_initializer": {"class_name": "Ones", "config": {}}, "beta_regularizer": null, "gamma_regularizer": null, "beta_constraint": null, "gamma_constraint": null}, "name": "stage3_1_branch3_basic1_bn1", "inbound_nodes": [[["stage3_1_branch3_basic1_conv1", 0, 0, {}]]]}, {"class_name": "Activation", "config": {"name": "stage2_transition_relu1", "trainable": true, "dtype": "float32", "activation": "relu"}, "name": "stage2_transition_relu1", "inbound_nodes": [[["stage2_transition_bn1", 0, 0, {}]]]}, {"class_name": "Activation", "config": {"name": "stage3_1_branch2_basic1_relu1", "trainable": true, "dtype": "float32", "activation": "relu"}, "name": "stage3_1_branch2_basic1_relu1", "inbound_nodes": [[["stage3_1_branch2_basic1_bn1", 0, 0, {}]]]}, {"class_name": "Activation", "config": {"name": "stage3_1_branch3_basic1_relu1", "trainable": true, "dtype": "float32", "activation": "relu"}, "name": "stage3_1_branch3_basic1_relu1", "inbound_nodes": [[["stage3_1_branch3_basic1_bn1", 0, 0, {}]]]}, {"class_name": "Conv2D", "config": {"name": "stage3_1_branch1_basic1_conv1", "trainable": true, "dtype": "float32", "filters": 32, "kernel_size": [3, 3], "strides": [1, 1], "padding": "same", "data_format": "channels_last", "dilation_rate": [1, 1], "groups": 1, "activation": "linear", "use_bias": false, "kernel_initializer": {"class_name": "HeNormal", "config": {"seed": null}}, "bias_initializer": {"class_name": "Zeros", "config": {}}, "kernel_regularizer": null, "bias_regularizer": null, "activity_regularizer": null, "kernel_constraint": null, "bias_constraint": null}, "name": "stage3_1_branch1_basic1_conv1", "inbound_nodes": [[["stage2_transition_relu1", 0, 0, {}]]]}, {"class_name": "Conv2D", "config": {"name": "stage3_1_branch2_basic1_conv2", "trainable": true, "dtype": "float32", "filters": 64, "kernel_size": [3, 3], "strides": [1, 1], "padding": "same", "data_format": "channels_last", "dilation_rate": [1, 1], "groups": 1, "activation": "linear", "use_bias": false, "kernel_initializer": {"class_name": "HeNormal", "config": {"seed": null}}, "bias_initializer": {"class_name": "Zeros", "config": {}}, "kernel_regularizer": null, "bias_regularizer": null, "activity_regularizer": null, "kernel_constraint": null, "bias_constraint": null}, "name": "stage3_1_branch2_basic1_conv2", "inbound_nodes": [[["stage3_1_branch2_basic1_relu1", 0, 0, {}]]]}, {"class_name": "Conv2D", "config": {"name": "stage3_1_branch3_basic1_conv2", "trainable": true, "dtype": "float32", "filters": 128, "kernel_size": [3, 3], "strides": [1, 1], "padding": "same", "data_format": "channels_last", "dilation_rate": [1, 1], "groups": 1, "activation": "linear", "use_bias": false, "kernel_initializer": {"class_name": "HeNormal", "config": {"seed": null}}, "bias_initializer": {"class_name": "Zeros", "config": {}}, "kernel_regularizer": null, "bias_regularizer": null, "activity_regularizer": null, "kernel_constraint": null, "bias_constraint": null}, "name": "stage3_1_branch3_basic1_conv2", "inbound_nodes": [[["stage3_1_branch3_basic1_relu1", 0, 0, {}]]]}, {"class_name": "BatchNormalization", "config": {"name": "stage3_1_branch1_basic1_bn1", "trainable": true, "dtype": "float32", "axis": [3], "momentum": 0.1, "epsilon": 0.001, "center": true, "scale": true, "beta_initializer": {"class_name": "Zeros", "config": {}}, "gamma_initializer": {"class_name": "Ones", "config": {}}, "moving_mean_initializer": {"class_name": "Zeros", "config": {}}, "moving_variance_initializer": {"class_name": "Ones", "config": {}}, "beta_regularizer": null, "gamma_regularizer": null, "beta_constraint": null, "gamma_constraint": null}, "name": "stage3_1_branch1_basic1_bn1", "inbound_nodes": [[["stage3_1_branch1_basic1_conv1", 0, 0, {}]]]}, {"class_name": "BatchNormalization", "config": {"name": "stage3_1_branch2_basic1_bn2", "trainable": true, "dtype": "float32", "axis": [3], "momentum": 0.1, "epsilon": 0.001, "center": true, "scale": true, "beta_initializer": {"class_name": "Zeros", "config": {}}, "gamma_initializer": {"class_name": "Ones", "config": {}}, "moving_mean_initializer": {"class_name": "Zeros", "config": {}}, "moving_variance_initializer": {"class_name": "Ones", "config": {}}, "beta_regularizer": null, "gamma_regularizer": null, "beta_constraint": null, "gamma_constraint": null}, "name": "stage3_1_branch2_basic1_bn2", "inbound_nodes": [[["stage3_1_branch2_basic1_conv2", 0, 0, {}]]]}, {"class_name": "BatchNormalization", "config": {"name": "stage3_1_branch3_basic1_bn2", "trainable": true, "dtype": "float32", "axis": [3], "momentum": 0.1, "epsilon": 0.001, "center": true, "scale": true, "beta_initializer": {"class_name": "Zeros", "config": {}}, "gamma_initializer": {"class_name": "Ones", "config": {}}, "moving_mean_initializer": {"class_name": "Zeros", "config": {}}, "moving_variance_initializer": {"class_name": "Ones", "config": {}}, "beta_regularizer": null, "gamma_regularizer": null, "beta_constraint": null, "gamma_constraint": null}, "name": "stage3_1_branch3_basic1_bn2", "inbound_nodes": [[["stage3_1_branch3_basic1_conv2", 0, 0, {}]]]}, {"class_name": "Activation", "config": {"name": "stage3_1_branch1_basic1_relu1", "trainable": true, "dtype": "float32", "activation": "relu"}, "name": "stage3_1_branch1_basic1_relu1", "inbound_nodes": [[["stage3_1_branch1_basic1_bn1", 0, 0, {}]]]}, {"class_name": "Add", "config": {"name": "stage3_1_branch2_basic1_res", "trainable": true, "dtype": "float32"}, "name": "stage3_1_branch2_basic1_res", "inbound_nodes": [[["stage3_1_branch2_basic1_bn2", 0, 0, {}], ["stage2_transition_relu2", 0, 0, {}]]]}, {"class_name": "Add", "config": {"name": "stage3_1_branch3_basic1_res", "trainable": true, "dtype": "float32"}, "name": "stage3_1_branch3_basic1_res", "inbound_nodes": [[["stage3_1_branch3_basic1_bn2", 0, 0, {}], ["stage2_transition_relu3", 0, 0, {}]]]}, {"class_name": "Conv2D", "config": {"name": "stage3_1_branch1_basic1_conv2", "trainable": true, "dtype": "float32", "filters": 32, "kernel_size": [3, 3], "strides": [1, 1], "padding": "same", "data_format": "channels_last", "dilation_rate": [1, 1], "groups": 1, "activation": "linear", "use_bias": false, "kernel_initializer": {"class_name": "HeNormal", "config": {"seed": null}}, "bias_initializer": {"class_name": "Zeros", "config": {}}, "kernel_regularizer": null, "bias_regularizer": null, "activity_regularizer": null, "kernel_constraint": null, "bias_constraint": null}, "name": "stage3_1_branch1_basic1_conv2", "inbound_nodes": [[["stage3_1_branch1_basic1_relu1", 0, 0, {}]]]}, {"class_name": "Activation", "config": {"name": "stage3_1_branch2_basic1_out", "trainable": true, "dtype": "float32", "activation": "relu"}, "name": "stage3_1_branch2_basic1_out", "inbound_nodes": [[["stage3_1_branch2_basic1_res", 0, 0, {}]]]}, {"class_name": "Activation", "config": {"name": "stage3_1_branch3_basic1_out", "trainable": true, "dtype": "float32", "activation": "relu"}, "name": "stage3_1_branch3_basic1_out", "inbound_nodes": [[["stage3_1_branch3_basic1_res", 0, 0, {}]]]}, {"class_name": "BatchNormalization", "config": {"name": "stage3_1_branch1_basic1_bn2", "trainable": true, "dtype": "float32", "axis": [3], "momentum": 0.1, "epsilon": 0.001, "center": true, "scale": true, "beta_initializer": {"class_name": "Zeros", "config": {}}, "gamma_initializer": {"class_name": "Ones", "config": {}}, "moving_mean_initializer": {"class_name": "Zeros", "config": {}}, "moving_variance_initializer": {"class_name": "Ones", "config": {}}, "beta_regularizer": null, "gamma_regularizer": null, "beta_constraint": null, "gamma_constraint": null}, "name": "stage3_1_branch1_basic1_bn2", "inbound_nodes": [[["stage3_1_branch1_basic1_conv2", 0, 0, {}]]]}, {"class_name": "Conv2D", "config": {"name": "stage3_1_branch2_basic2_conv1", "trainable": true, "dtype": "float32", "filters": 64, "kernel_size": [3, 3], "strides": [1, 1], "padding": "same", "data_format": "channels_last", "dilation_rate": [1, 1], "groups": 1, "activation": "linear", "use_bias": false, "kernel_initializer": {"class_name": "HeNormal", "config": {"seed": null}}, "bias_initializer": {"class_name": "Zeros", "config": {}}, "kernel_regularizer": null, "bias_regularizer": null, "activity_regularizer": null, "kernel_constraint": null, "bias_constraint": null}, "name": "stage3_1_branch2_basic2_conv1", "inbound_nodes": [[["stage3_1_branch2_basic1_out", 0, 0, {}]]]}, {"class_name": "Conv2D", "config": {"name": "stage3_1_branch3_basic2_conv1", "trainable": true, "dtype": "float32", "filters": 128, "kernel_size": [3, 3], "strides": [1, 1], "padding": "same", "data_format": "channels_last", "dilation_rate": [1, 1], "groups": 1, "activation": "linear", "use_bias": false, "kernel_initializer": {"class_name": "HeNormal", "config": {"seed": null}}, "bias_initializer": {"class_name": "Zeros", "config": {}}, "kernel_regularizer": null, "bias_regularizer": null, "activity_regularizer": null, "kernel_constraint": null, "bias_constraint": null}, "name": "stage3_1_branch3_basic2_conv1", "inbound_nodes": [[["stage3_1_branch3_basic1_out", 0, 0, {}]]]}, {"class_name": "Add", "config": {"name": "stage3_1_branch1_basic1_res", "trainable": true, "dtype": "float32"}, "name": "stage3_1_branch1_basic1_res", "inbound_nodes": [[["stage3_1_branch1_basic1_bn2", 0, 0, {}], ["stage2_transition_relu1", 0, 0, {}]]]}, {"class_name": "BatchNormalization", "config": {"name": "stage3_1_branch2_basic2_bn1", "trainable": true, "dtype": "float32", "axis": [3], "momentum": 0.1, "epsilon": 0.001, "center": true, "scale": true, "beta_initializer": {"class_name": "Zeros", "config": {}}, "gamma_initializer": {"class_name": "Ones", "config": {}}, "moving_mean_initializer": {"class_name": "Zeros", "config": {}}, "moving_variance_initializer": {"class_name": "Ones", "config": {}}, "beta_regularizer": null, "gamma_regularizer": null, "beta_constraint": null, "gamma_constraint": null}, "name": "stage3_1_branch2_basic2_bn1", "inbound_nodes": [[["stage3_1_branch2_basic2_conv1", 0, 0, {}]]]}, {"class_name": "BatchNormalization", "config": {"name": "stage3_1_branch3_basic2_bn1", "trainable": true, "dtype": "float32", "axis": [3], "momentum": 0.1, "epsilon": 0.001, "center": true, "scale": true, "beta_initializer": {"class_name": "Zeros", "config": {}}, "gamma_initializer": {"class_name": "Ones", "config": {}}, "moving_mean_initializer": {"class_name": "Zeros", "config": {}}, "moving_variance_initializer": {"class_name": "Ones", "config": {}}, "beta_regularizer": null, "gamma_regularizer": null, "beta_constraint": null, "gamma_constraint": null}, "name": "stage3_1_branch3_basic2_bn1", "inbound_nodes": [[["stage3_1_branch3_basic2_conv1", 0, 0, {}]]]}, {"class_name": "Activation", "config": {"name": "stage3_1_branch1_basic1_out", "trainable": true, "dtype": "float32", "activation": "relu"}, "name": "stage3_1_branch1_basic1_out", "inbound_nodes": [[["stage3_1_branch1_basic1_res", 0, 0, {}]]]}, {"class_name": "Activation", "config": {"name": "stage3_1_branch2_basic2_relu1", "trainable": true, "dtype": "float32", "activation": "relu"}, "name": "stage3_1_branch2_basic2_relu1", "inbound_nodes": [[["stage3_1_branch2_basic2_bn1", 0, 0, {}]]]}, {"class_name": "Activation", "config": {"name": "stage3_1_branch3_basic2_relu1", "trainable": true, "dtype": "float32", "activation": "relu"}, "name": "stage3_1_branch3_basic2_relu1", "inbound_nodes": [[["stage3_1_branch3_basic2_bn1", 0, 0, {}]]]}, {"class_name": "Conv2D", "config": {"name": "stage3_1_branch1_basic2_conv1", "trainable": true, "dtype": "float32", "filters": 32, "kernel_size": [3, 3], "strides": [1, 1], "padding": "same", "data_format": "channels_last", "dilation_rate": [1, 1], "groups": 1, "activation": "linear", "use_bias": false, "kernel_initializer": {"class_name": "HeNormal", "config": {"seed": null}}, "bias_initializer": {"class_name": "Zeros", "config": {}}, "kernel_regularizer": null, "bias_regularizer": null, "activity_regularizer": null, "kernel_constraint": null, "bias_constraint": null}, "name": "stage3_1_branch1_basic2_conv1", "inbound_nodes": [[["stage3_1_branch1_basic1_out", 0, 0, {}]]]}, {"class_name": "Conv2D", "config": {"name": "stage3_1_branch2_basic2_conv2", "trainable": true, "dtype": "float32", "filters": 64, "kernel_size": [3, 3], "strides": [1, 1], "padding": "same", "data_format": "channels_last", "dilation_rate": [1, 1], "groups": 1, "activation": "linear", "use_bias": false, "kernel_initializer": {"class_name": "HeNormal", "config": {"seed": null}}, "bias_initializer": {"class_name": "Zeros", "config": {}}, "kernel_regularizer": null, "bias_regularizer": null, "activity_regularizer": null, "kernel_constraint": null, "bias_constraint": null}, "name": "stage3_1_branch2_basic2_conv2", "inbound_nodes": [[["stage3_1_branch2_basic2_relu1", 0, 0, {}]]]}, {"class_name": "Conv2D", "config": {"name": "stage3_1_branch3_basic2_conv2", "trainable": true, "dtype": "float32", "filters": 128, "kernel_size": [3, 3], "strides": [1, 1], "padding": "same", "data_format": "channels_last", "dilation_rate": [1, 1], "groups": 1, "activation": "linear", "use_bias": false, "kernel_initializer": {"class_name": "HeNormal", "config": {"seed": null}}, "bias_initializer": {"class_name": "Zeros", "config": {}}, "kernel_regularizer": null, "bias_regularizer": null, "activity_regularizer": null, "kernel_constraint": null, "bias_constraint": null}, "name": "stage3_1_branch3_basic2_conv2", "inbound_nodes": [[["stage3_1_branch3_basic2_relu1", 0, 0, {}]]]}, {"class_name": "BatchNormalization", "config": {"name": "stage3_1_branch1_basic2_bn1", "trainable": true, "dtype": "float32", "axis": [3], "momentum": 0.1, "epsilon": 0.001, "center": true, "scale": true, "beta_initializer": {"class_name": "Zeros", "config": {}}, "gamma_initializer": {"class_name": "Ones", "config": {}}, "moving_mean_initializer": {"class_name": "Zeros", "config": {}}, "moving_variance_initializer": {"class_name": "Ones", "config": {}}, "beta_regularizer": null, "gamma_regularizer": null, "beta_constraint": null, "gamma_constraint": null}, "name": "stage3_1_branch1_basic2_bn1", "inbound_nodes": [[["stage3_1_branch1_basic2_conv1", 0, 0, {}]]]}, {"class_name": "BatchNormalization", "config": {"name": "stage3_1_branch2_basic2_bn2", "trainable": true, "dtype": "float32", "axis": [3], "momentum": 0.1, "epsilon": 0.001, "center": true, "scale": true, "beta_initializer": {"class_name": "Zeros", "config": {}}, "gamma_initializer": {"class_name": "Ones", "config": {}}, "moving_mean_initializer": {"class_name": "Zeros", "config": {}}, "moving_variance_initializer": {"class_name": "Ones", "config": {}}, "beta_regularizer": null, "gamma_regularizer": null, "beta_constraint": null, "gamma_constraint": null}, "name": "stage3_1_branch2_basic2_bn2", "inbound_nodes": [[["stage3_1_branch2_basic2_conv2", 0, 0, {}]]]}, {"class_name": "BatchNormalization", "config": {"name": "stage3_1_branch3_basic2_bn2", "trainable": true, "dtype": "float32", "axis": [3], "momentum": 0.1, "epsilon": 0.001, "center": true, "scale": true, "beta_initializer": {"class_name": "Zeros", "config": {}}, "gamma_initializer": {"class_name": "Ones", "config": {}}, "moving_mean_initializer": {"class_name": "Zeros", "config": {}}, "moving_variance_initializer": {"class_name": "Ones", "config": {}}, "beta_regularizer": null, "gamma_regularizer": null, "beta_constraint": null, "gamma_constraint": null}, "name": "stage3_1_branch3_basic2_bn2", "inbound_nodes": [[["stage3_1_branch3_basic2_conv2", 0, 0, {}]]]}, {"class_name": "Activation", "config": {"name": "stage3_1_branch1_basic2_relu1", "trainable": true, "dtype": "float32", "activation": "relu"}, "name": "stage3_1_branch1_basic2_relu1", "inbound_nodes": [[["stage3_1_branch1_basic2_bn1", 0, 0, {}]]]}, {"class_name": "Add", "config": {"name": "stage3_1_branch2_basic2_res", "trainable": true, "dtype": "float32"}, "name": "stage3_1_branch2_basic2_res", "inbound_nodes": [[["stage3_1_branch2_basic2_bn2", 0, 0, {}], ["stage3_1_branch2_basic1_out", 0, 0, {}]]]}, {"class_name": "Add", "config": {"name": "stage3_1_branch3_basic2_res", "trainable": true, "dtype": "float32"}, "name": "stage3_1_branch3_basic2_res", "inbound_nodes": [[["stage3_1_branch3_basic2_bn2", 0, 0, {}], ["stage3_1_branch3_basic1_out", 0, 0, {}]]]}, {"class_name": "Conv2D", "config": {"name": "stage3_1_branch1_basic2_conv2", "trainable": true, "dtype": "float32", "filters": 32, "kernel_size": [3, 3], "strides": [1, 1], "padding": "same", "data_format": "channels_last", "dilation_rate": [1, 1], "groups": 1, "activation": "linear", "use_bias": false, "kernel_initializer": {"class_name": "HeNormal", "config": {"seed": null}}, "bias_initializer": {"class_name": "Zeros", "config": {}}, "kernel_regularizer": null, "bias_regularizer": null, "activity_regularizer": null, "kernel_constraint": null, "bias_constraint": null}, "name": "stage3_1_branch1_basic2_conv2", "inbound_nodes": [[["stage3_1_branch1_basic2_relu1", 0, 0, {}]]]}, {"class_name": "Activation", "config": {"name": "stage3_1_branch2_basic2_out", "trainable": true, "dtype": "float32", "activation": "relu"}, "name": "stage3_1_branch2_basic2_out", "inbound_nodes": [[["stage3_1_branch2_basic2_res", 0, 0, {}]]]}, {"class_name": "Activation", "config": {"name": "stage3_1_branch3_basic2_out", "trainable": true, "dtype": "float32", "activation": "relu"}, "name": "stage3_1_branch3_basic2_out", "inbound_nodes": [[["stage3_1_branch3_basic2_res", 0, 0, {}]]]}, {"class_name": "BatchNormalization", "config": {"name": "stage3_1_branch1_basic2_bn2", "trainable": true, "dtype": "float32", "axis": [3], "momentum": 0.1, "epsilon": 0.001, "center": true, "scale": true, "beta_initializer": {"class_name": "Zeros", "config": {}}, "gamma_initializer": {"class_name": "Ones", "config": {}}, "moving_mean_initializer": {"class_name": "Zeros", "config": {}}, "moving_variance_initializer": {"class_name": "Ones", "config": {}}, "beta_regularizer": null, "gamma_regularizer": null, "beta_constraint": null, "gamma_constraint": null}, "name": "stage3_1_branch1_basic2_bn2", "inbound_nodes": [[["stage3_1_branch1_basic2_conv2", 0, 0, {}]]]}, {"class_name": "Conv2D", "config": {"name": "stage3_1_branch2_basic3_conv1", "trainable": true, "dtype": "float32", "filters": 64, "kernel_size": [3, 3], "strides": [1, 1], "padding": "same", "data_format": "channels_last", "dilation_rate": [1, 1], "groups": 1, "activation": "linear", "use_bias": false, "kernel_initializer": {"class_name": "HeNormal", "config": {"seed": null}}, "bias_initializer": {"class_name": "Zeros", "config": {}}, "kernel_regularizer": null, "bias_regularizer": null, "activity_regularizer": null, "kernel_constraint": null, "bias_constraint": null}, "name": "stage3_1_branch2_basic3_conv1", "inbound_nodes": [[["stage3_1_branch2_basic2_out", 0, 0, {}]]]}, {"class_name": "Conv2D", "config": {"name": "stage3_1_branch3_basic3_conv1", "trainable": true, "dtype": "float32", "filters": 128, "kernel_size": [3, 3], "strides": [1, 1], "padding": "same", "data_format": "channels_last", "dilation_rate": [1, 1], "groups": 1, "activation": "linear", "use_bias": false, "kernel_initializer": {"class_name": "HeNormal", "config": {"seed": null}}, "bias_initializer": {"class_name": "Zeros", "config": {}}, "kernel_regularizer": null, "bias_regularizer": null, "activity_regularizer": null, "kernel_constraint": null, "bias_constraint": null}, "name": "stage3_1_branch3_basic3_conv1", "inbound_nodes": [[["stage3_1_branch3_basic2_out", 0, 0, {}]]]}, {"class_name": "Add", "config": {"name": "stage3_1_branch1_basic2_res", "trainable": true, "dtype": "float32"}, "name": "stage3_1_branch1_basic2_res", "inbound_nodes": [[["stage3_1_branch1_basic2_bn2", 0, 0, {}], ["stage3_1_branch1_basic1_out", 0, 0, {}]]]}, {"class_name": "BatchNormalization", "config": {"name": "stage3_1_branch2_basic3_bn1", "trainable": true, "dtype": "float32", "axis": [3], "momentum": 0.1, "epsilon": 0.001, "center": true, "scale": true, "beta_initializer": {"class_name": "Zeros", "config": {}}, "gamma_initializer": {"class_name": "Ones", "config": {}}, "moving_mean_initializer": {"class_name": "Zeros", "config": {}}, "moving_variance_initializer": {"class_name": "Ones", "config": {}}, "beta_regularizer": null, "gamma_regularizer": null, "beta_constraint": null, "gamma_constraint": null}, "name": "stage3_1_branch2_basic3_bn1", "inbound_nodes": [[["stage3_1_branch2_basic3_conv1", 0, 0, {}]]]}, {"class_name": "BatchNormalization", "config": {"name": "stage3_1_branch3_basic3_bn1", "trainable": true, "dtype": "float32", "axis": [3], "momentum": 0.1, "epsilon": 0.001, "center": true, "scale": true, "beta_initializer": {"class_name": "Zeros", "config": {}}, "gamma_initializer": {"class_name": "Ones", "config": {}}, "moving_mean_initializer": {"class_name": "Zeros", "config": {}}, "moving_variance_initializer": {"class_name": "Ones", "config": {}}, "beta_regularizer": null, "gamma_regularizer": null, "beta_constraint": null, "gamma_constraint": null}, "name": "stage3_1_branch3_basic3_bn1", "inbound_nodes": [[["stage3_1_branch3_basic3_conv1", 0, 0, {}]]]}, {"class_name": "Activation", "config": {"name": "stage3_1_branch1_basic2_out", "trainable": true, "dtype": "float32", "activation": "relu"}, "name": "stage3_1_branch1_basic2_out", "inbound_nodes": [[["stage3_1_branch1_basic2_res", 0, 0, {}]]]}, {"class_name": "Activation", "config": {"name": "stage3_1_branch2_basic3_relu1", "trainable": true, "dtype": "float32", "activation": "relu"}, "name": "stage3_1_branch2_basic3_relu1", "inbound_nodes": [[["stage3_1_branch2_basic3_bn1", 0, 0, {}]]]}, {"class_name": "Activation", "config": {"name": "stage3_1_branch3_basic3_relu1", "trainable": true, "dtype": "float32", "activation": "relu"}, "name": "stage3_1_branch3_basic3_relu1", "inbound_nodes": [[["stage3_1_branch3_basic3_bn1", 0, 0, {}]]]}, {"class_name": "Conv2D", "config": {"name": "stage3_1_branch1_basic3_conv1", "trainable": true, "dtype": "float32", "filters": 32, "kernel_size": [3, 3], "strides": [1, 1], "padding": "same", "data_format": "channels_last", "dilation_rate": [1, 1], "groups": 1, "activation": "linear", "use_bias": false, "kernel_initializer": {"class_name": "HeNormal", "config": {"seed": null}}, "bias_initializer": {"class_name": "Zeros", "config": {}}, "kernel_regularizer": null, "bias_regularizer": null, "activity_regularizer": null, "kernel_constraint": null, "bias_constraint": null}, "name": "stage3_1_branch1_basic3_conv1", "inbound_nodes": [[["stage3_1_branch1_basic2_out", 0, 0, {}]]]}, {"class_name": "Conv2D", "config": {"name": "stage3_1_branch2_basic3_conv2", "trainable": true, "dtype": "float32", "filters": 64, "kernel_size": [3, 3], "strides": [1, 1], "padding": "same", "data_format": "channels_last", "dilation_rate": [1, 1], "groups": 1, "activation": "linear", "use_bias": false, "kernel_initializer": {"class_name": "HeNormal", "config": {"seed": null}}, "bias_initializer": {"class_name": "Zeros", "config": {}}, "kernel_regularizer": null, "bias_regularizer": null, "activity_regularizer": null, "kernel_constraint": null, "bias_constraint": null}, "name": "stage3_1_branch2_basic3_conv2", "inbound_nodes": [[["stage3_1_branch2_basic3_relu1", 0, 0, {}]]]}, {"class_name": "Conv2D", "config": {"name": "stage3_1_branch3_basic3_conv2", "trainable": true, "dtype": "float32", "filters": 128, "kernel_size": [3, 3], "strides": [1, 1], "padding": "same", "data_format": "channels_last", "dilation_rate": [1, 1], "groups": 1, "activation": "linear", "use_bias": false, "kernel_initializer": {"class_name": "HeNormal", "config": {"seed": null}}, "bias_initializer": {"class_name": "Zeros", "config": {}}, "kernel_regularizer": null, "bias_regularizer": null, "activity_regularizer": null, "kernel_constraint": null, "bias_constraint": null}, "name": "stage3_1_branch3_basic3_conv2", "inbound_nodes": [[["stage3_1_branch3_basic3_relu1", 0, 0, {}]]]}, {"class_name": "BatchNormalization", "config": {"name": "stage3_1_branch1_basic3_bn1", "trainable": true, "dtype": "float32", "axis": [3], "momentum": 0.1, "epsilon": 0.001, "center": true, "scale": true, "beta_initializer": {"class_name": "Zeros", "config": {}}, "gamma_initializer": {"class_name": "Ones", "config": {}}, "moving_mean_initializer": {"class_name": "Zeros", "config": {}}, "moving_variance_initializer": {"class_name": "Ones", "config": {}}, "beta_regularizer": null, "gamma_regularizer": null, "beta_constraint": null, "gamma_constraint": null}, "name": "stage3_1_branch1_basic3_bn1", "inbound_nodes": [[["stage3_1_branch1_basic3_conv1", 0, 0, {}]]]}, {"class_name": "BatchNormalization", "config": {"name": "stage3_1_branch2_basic3_bn2", "trainable": true, "dtype": "float32", "axis": [3], "momentum": 0.1, "epsilon": 0.001, "center": true, "scale": true, "beta_initializer": {"class_name": "Zeros", "config": {}}, "gamma_initializer": {"class_name": "Ones", "config": {}}, "moving_mean_initializer": {"class_name": "Zeros", "config": {}}, "moving_variance_initializer": {"class_name": "Ones", "config": {}}, "beta_regularizer": null, "gamma_regularizer": null, "beta_constraint": null, "gamma_constraint": null}, "name": "stage3_1_branch2_basic3_bn2", "inbound_nodes": [[["stage3_1_branch2_basic3_conv2", 0, 0, {}]]]}, {"class_name": "BatchNormalization", "config": {"name": "stage3_1_branch3_basic3_bn2", "trainable": true, "dtype": "float32", "axis": [3], "momentum": 0.1, "epsilon": 0.001, "center": true, "scale": true, "beta_initializer": {"class_name": "Zeros", "config": {}}, "gamma_initializer": {"class_name": "Ones", "config": {}}, "moving_mean_initializer": {"class_name": "Zeros", "config": {}}, "moving_variance_initializer": {"class_name": "Ones", "config": {}}, "beta_regularizer": null, "gamma_regularizer": null, "beta_constraint": null, "gamma_constraint": null}, "name": "stage3_1_branch3_basic3_bn2", "inbound_nodes": [[["stage3_1_branch3_basic3_conv2", 0, 0, {}]]]}, {"class_name": "Activation", "config": {"name": "stage3_1_branch1_basic3_relu1", "trainable": true, "dtype": "float32", "activation": "relu"}, "name": "stage3_1_branch1_basic3_relu1", "inbound_nodes": [[["stage3_1_branch1_basic3_bn1", 0, 0, {}]]]}, {"class_name": "Add", "config": {"name": "stage3_1_branch2_basic3_res", "trainable": true, "dtype": "float32"}, "name": "stage3_1_branch2_basic3_res", "inbound_nodes": [[["stage3_1_branch2_basic3_bn2", 0, 0, {}], ["stage3_1_branch2_basic2_out", 0, 0, {}]]]}, {"class_name": "Add", "config": {"name": "stage3_1_branch3_basic3_res", "trainable": true, "dtype": "float32"}, "name": "stage3_1_branch3_basic3_res", "inbound_nodes": [[["stage3_1_branch3_basic3_bn2", 0, 0, {}], ["stage3_1_branch3_basic2_out", 0, 0, {}]]]}, {"class_name": "Conv2D", "config": {"name": "stage3_1_branch1_basic3_conv2", "trainable": true, "dtype": "float32", "filters": 32, "kernel_size": [3, 3], "strides": [1, 1], "padding": "same", "data_format": "channels_last", "dilation_rate": [1, 1], "groups": 1, "activation": "linear", "use_bias": false, "kernel_initializer": {"class_name": "HeNormal", "config": {"seed": null}}, "bias_initializer": {"class_name": "Zeros", "config": {}}, "kernel_regularizer": null, "bias_regularizer": null, "activity_regularizer": null, "kernel_constraint": null, "bias_constraint": null}, "name": "stage3_1_branch1_basic3_conv2", "inbound_nodes": [[["stage3_1_branch1_basic3_relu1", 0, 0, {}]]]}, {"class_name": "Activation", "config": {"name": "stage3_1_branch2_basic3_out", "trainable": true, "dtype": "float32", "activation": "relu"}, "name": "stage3_1_branch2_basic3_out", "inbound_nodes": [[["stage3_1_branch2_basic3_res", 0, 0, {}]]]}, {"class_name": "Activation", "config": {"name": "stage3_1_branch3_basic3_out", "trainable": true, "dtype": "float32", "activation": "relu"}, "name": "stage3_1_branch3_basic3_out", "inbound_nodes": [[["stage3_1_branch3_basic3_res", 0, 0, {}]]]}, {"class_name": "BatchNormalization", "config": {"name": "stage3_1_branch1_basic3_bn2", "trainable": true, "dtype": "float32", "axis": [3], "momentum": 0.1, "epsilon": 0.001, "center": true, "scale": true, "beta_initializer": {"class_name": "Zeros", "config": {}}, "gamma_initializer": {"class_name": "Ones", "config": {}}, "moving_mean_initializer": {"class_name": "Zeros", "config": {}}, "moving_variance_initializer": {"class_name": "Ones", "config": {}}, "beta_regularizer": null, "gamma_regularizer": null, "beta_constraint": null, "gamma_constraint": null}, "name": "stage3_1_branch1_basic3_bn2", "inbound_nodes": [[["stage3_1_branch1_basic3_conv2", 0, 0, {}]]]}, {"class_name": "Conv2D", "config": {"name": "stage3_1_branch2_basic4_conv1", "trainable": true, "dtype": "float32", "filters": 64, "kernel_size": [3, 3], "strides": [1, 1], "padding": "same", "data_format": "channels_last", "dilation_rate": [1, 1], "groups": 1, "activation": "linear", "use_bias": false, "kernel_initializer": {"class_name": "HeNormal", "config": {"seed": null}}, "bias_initializer": {"class_name": "Zeros", "config": {}}, "kernel_regularizer": null, "bias_regularizer": null, "activity_regularizer": null, "kernel_constraint": null, "bias_constraint": null}, "name": "stage3_1_branch2_basic4_conv1", "inbound_nodes": [[["stage3_1_branch2_basic3_out", 0, 0, {}]]]}, {"class_name": "Conv2D", "config": {"name": "stage3_1_branch3_basic4_conv1", "trainable": true, "dtype": "float32", "filters": 128, "kernel_size": [3, 3], "strides": [1, 1], "padding": "same", "data_format": "channels_last", "dilation_rate": [1, 1], "groups": 1, "activation": "linear", "use_bias": false, "kernel_initializer": {"class_name": "HeNormal", "config": {"seed": null}}, "bias_initializer": {"class_name": "Zeros", "config": {}}, "kernel_regularizer": null, "bias_regularizer": null, "activity_regularizer": null, "kernel_constraint": null, "bias_constraint": null}, "name": "stage3_1_branch3_basic4_conv1", "inbound_nodes": [[["stage3_1_branch3_basic3_out", 0, 0, {}]]]}, {"class_name": "Add", "config": {"name": "stage3_1_branch1_basic3_res", "trainable": true, "dtype": "float32"}, "name": "stage3_1_branch1_basic3_res", "inbound_nodes": [[["stage3_1_branch1_basic3_bn2", 0, 0, {}], ["stage3_1_branch1_basic2_out", 0, 0, {}]]]}, {"class_name": "BatchNormalization", "config": {"name": "stage3_1_branch2_basic4_bn1", "trainable": true, "dtype": "float32", "axis": [3], "momentum": 0.1, "epsilon": 0.001, "center": true, "scale": true, "beta_initializer": {"class_name": "Zeros", "config": {}}, "gamma_initializer": {"class_name": "Ones", "config": {}}, "moving_mean_initializer": {"class_name": "Zeros", "config": {}}, "moving_variance_initializer": {"class_name": "Ones", "config": {}}, "beta_regularizer": null, "gamma_regularizer": null, "beta_constraint": null, "gamma_constraint": null}, "name": "stage3_1_branch2_basic4_bn1", "inbound_nodes": [[["stage3_1_branch2_basic4_conv1", 0, 0, {}]]]}, {"class_name": "BatchNormalization", "config": {"name": "stage3_1_branch3_basic4_bn1", "trainable": true, "dtype": "float32", "axis": [3], "momentum": 0.1, "epsilon": 0.001, "center": true, "scale": true, "beta_initializer": {"class_name": "Zeros", "config": {}}, "gamma_initializer": {"class_name": "Ones", "config": {}}, "moving_mean_initializer": {"class_name": "Zeros", "config": {}}, "moving_variance_initializer": {"class_name": "Ones", "config": {}}, "beta_regularizer": null, "gamma_regularizer": null, "beta_constraint": null, "gamma_constraint": null}, "name": "stage3_1_branch3_basic4_bn1", "inbound_nodes": [[["stage3_1_branch3_basic4_conv1", 0, 0, {}]]]}, {"class_name": "Activation", "config": {"name": "stage3_1_branch1_basic3_out", "trainable": true, "dtype": "float32", "activation": "relu"}, "name": "stage3_1_branch1_basic3_out", "inbound_nodes": [[["stage3_1_branch1_basic3_res", 0, 0, {}]]]}, {"class_name": "Activation", "config": {"name": "stage3_1_branch2_basic4_relu1", "trainable": true, "dtype": "float32", "activation": "relu"}, "name": "stage3_1_branch2_basic4_relu1", "inbound_nodes": [[["stage3_1_branch2_basic4_bn1", 0, 0, {}]]]}, {"class_name": "Activation", "config": {"name": "stage3_1_branch3_basic4_relu1", "trainable": true, "dtype": "float32", "activation": "relu"}, "name": "stage3_1_branch3_basic4_relu1", "inbound_nodes": [[["stage3_1_branch3_basic4_bn1", 0, 0, {}]]]}, {"class_name": "Conv2D", "config": {"name": "stage3_1_branch1_basic4_conv1", "trainable": true, "dtype": "float32", "filters": 32, "kernel_size": [3, 3], "strides": [1, 1], "padding": "same", "data_format": "channels_last", "dilation_rate": [1, 1], "groups": 1, "activation": "linear", "use_bias": false, "kernel_initializer": {"class_name": "HeNormal", "config": {"seed": null}}, "bias_initializer": {"class_name": "Zeros", "config": {}}, "kernel_regularizer": null, "bias_regularizer": null, "activity_regularizer": null, "kernel_constraint": null, "bias_constraint": null}, "name": "stage3_1_branch1_basic4_conv1", "inbound_nodes": [[["stage3_1_branch1_basic3_out", 0, 0, {}]]]}, {"class_name": "Conv2D", "config": {"name": "stage3_1_branch2_basic4_conv2", "trainable": true, "dtype": "float32", "filters": 64, "kernel_size": [3, 3], "strides": [1, 1], "padding": "same", "data_format": "channels_last", "dilation_rate": [1, 1], "groups": 1, "activation": "linear", "use_bias": false, "kernel_initializer": {"class_name": "HeNormal", "config": {"seed": null}}, "bias_initializer": {"class_name": "Zeros", "config": {}}, "kernel_regularizer": null, "bias_regularizer": null, "activity_regularizer": null, "kernel_constraint": null, "bias_constraint": null}, "name": "stage3_1_branch2_basic4_conv2", "inbound_nodes": [[["stage3_1_branch2_basic4_relu1", 0, 0, {}]]]}, {"class_name": "Conv2D", "config": {"name": "stage3_1_branch3_basic4_conv2", "trainable": true, "dtype": "float32", "filters": 128, "kernel_size": [3, 3], "strides": [1, 1], "padding": "same", "data_format": "channels_last", "dilation_rate": [1, 1], "groups": 1, "activation": "linear", "use_bias": false, "kernel_initializer": {"class_name": "HeNormal", "config": {"seed": null}}, "bias_initializer": {"class_name": "Zeros", "config": {}}, "kernel_regularizer": null, "bias_regularizer": null, "activity_regularizer": null, "kernel_constraint": null, "bias_constraint": null}, "name": "stage3_1_branch3_basic4_conv2", "inbound_nodes": [[["stage3_1_branch3_basic4_relu1", 0, 0, {}]]]}, {"class_name": "BatchNormalization", "config": {"name": "stage3_1_branch1_basic4_bn1", "trainable": true, "dtype": "float32", "axis": [3], "momentum": 0.1, "epsilon": 0.001, "center": true, "scale": true, "beta_initializer": {"class_name": "Zeros", "config": {}}, "gamma_initializer": {"class_name": "Ones", "config": {}}, "moving_mean_initializer": {"class_name": "Zeros", "config": {}}, "moving_variance_initializer": {"class_name": "Ones", "config": {}}, "beta_regularizer": null, "gamma_regularizer": null, "beta_constraint": null, "gamma_constraint": null}, "name": "stage3_1_branch1_basic4_bn1", "inbound_nodes": [[["stage3_1_branch1_basic4_conv1", 0, 0, {}]]]}, {"class_name": "BatchNormalization", "config": {"name": "stage3_1_branch2_basic4_bn2", "trainable": true, "dtype": "float32", "axis": [3], "momentum": 0.1, "epsilon": 0.001, "center": true, "scale": true, "beta_initializer": {"class_name": "Zeros", "config": {}}, "gamma_initializer": {"class_name": "Ones", "config": {}}, "moving_mean_initializer": {"class_name": "Zeros", "config": {}}, "moving_variance_initializer": {"class_name": "Ones", "config": {}}, "beta_regularizer": null, "gamma_regularizer": null, "beta_constraint": null, "gamma_constraint": null}, "name": "stage3_1_branch2_basic4_bn2", "inbound_nodes": [[["stage3_1_branch2_basic4_conv2", 0, 0, {}]]]}, {"class_name": "BatchNormalization", "config": {"name": "stage3_1_branch3_basic4_bn2", "trainable": true, "dtype": "float32", "axis": [3], "momentum": 0.1, "epsilon": 0.001, "center": true, "scale": true, "beta_initializer": {"class_name": "Zeros", "config": {}}, "gamma_initializer": {"class_name": "Ones", "config": {}}, "moving_mean_initializer": {"class_name": "Zeros", "config": {}}, "moving_variance_initializer": {"class_name": "Ones", "config": {}}, "beta_regularizer": null, "gamma_regularizer": null, "beta_constraint": null, "gamma_constraint": null}, "name": "stage3_1_branch3_basic4_bn2", "inbound_nodes": [[["stage3_1_branch3_basic4_conv2", 0, 0, {}]]]}, {"class_name": "Activation", "config": {"name": "stage3_1_branch1_basic4_relu1", "trainable": true, "dtype": "float32", "activation": "relu"}, "name": "stage3_1_branch1_basic4_relu1", "inbound_nodes": [[["stage3_1_branch1_basic4_bn1", 0, 0, {}]]]}, {"class_name": "Add", "config": {"name": "stage3_1_branch2_basic4_res", "trainable": true, "dtype": "float32"}, "name": "stage3_1_branch2_basic4_res", "inbound_nodes": [[["stage3_1_branch2_basic4_bn2", 0, 0, {}], ["stage3_1_branch2_basic3_out", 0, 0, {}]]]}, {"class_name": "Add", "config": {"name": "stage3_1_branch3_basic4_res", "trainable": true, "dtype": "float32"}, "name": "stage3_1_branch3_basic4_res", "inbound_nodes": [[["stage3_1_branch3_basic4_bn2", 0, 0, {}], ["stage3_1_branch3_basic3_out", 0, 0, {}]]]}, {"class_name": "Conv2D", "config": {"name": "stage3_1_branch1_basic4_conv2", "trainable": true, "dtype": "float32", "filters": 32, "kernel_size": [3, 3], "strides": [1, 1], "padding": "same", "data_format": "channels_last", "dilation_rate": [1, 1], "groups": 1, "activation": "linear", "use_bias": false, "kernel_initializer": {"class_name": "HeNormal", "config": {"seed": null}}, "bias_initializer": {"class_name": "Zeros", "config": {}}, "kernel_regularizer": null, "bias_regularizer": null, "activity_regularizer": null, "kernel_constraint": null, "bias_constraint": null}, "name": "stage3_1_branch1_basic4_conv2", "inbound_nodes": [[["stage3_1_branch1_basic4_relu1", 0, 0, {}]]]}, {"class_name": "Activation", "config": {"name": "stage3_1_branch2_basic4_out", "trainable": true, "dtype": "float32", "activation": "relu"}, "name": "stage3_1_branch2_basic4_out", "inbound_nodes": [[["stage3_1_branch2_basic4_res", 0, 0, {}]]]}, {"class_name": "Activation", "config": {"name": "stage3_1_branch3_basic4_out", "trainable": true, "dtype": "float32", "activation": "relu"}, "name": "stage3_1_branch3_basic4_out", "inbound_nodes": [[["stage3_1_branch3_basic4_res", 0, 0, {}]]]}, {"class_name": "BatchNormalization", "config": {"name": "stage3_1_branch1_basic4_bn2", "trainable": true, "dtype": "float32", "axis": [3], "momentum": 0.1, "epsilon": 0.001, "center": true, "scale": true, "beta_initializer": {"class_name": "Zeros", "config": {}}, "gamma_initializer": {"class_name": "Ones", "config": {}}, "moving_mean_initializer": {"class_name": "Zeros", "config": {}}, "moving_variance_initializer": {"class_name": "Ones", "config": {}}, "beta_regularizer": null, "gamma_regularizer": null, "beta_constraint": null, "gamma_constraint": null}, "name": "stage3_1_branch1_basic4_bn2", "inbound_nodes": [[["stage3_1_branch1_basic4_conv2", 0, 0, {}]]]}, {"class_name": "Conv2D", "config": {"name": "stage3_1_fuse_conv2_1", "trainable": true, "dtype": "float32", "filters": 32, "kernel_size": [1, 1], "strides": [1, 1], "padding": "valid", "data_format": "channels_last", "dilation_rate": [1, 1], "groups": 1, "activation": "linear", "use_bias": false, "kernel_initializer": {"class_name": "HeNormal", "config": {"seed": null}}, "bias_initializer": {"class_name": "Zeros", "config": {}}, "kernel_regularizer": null, "bias_regularizer": null, "activity_regularizer": null, "kernel_constraint": null, "bias_constraint": null}, "name": "stage3_1_fuse_conv2_1", "inbound_nodes": [[["stage3_1_branch2_basic4_out", 0, 0, {}]]]}, {"class_name": "Conv2D", "config": {"name": "stage3_1_fuse_conv3_1", "trainable": true, "dtype": "float32", "filters": 32, "kernel_size": [1, 1], "strides": [1, 1], "padding": "valid", "data_format": "channels_last", "dilation_rate": [1, 1], "groups": 1, "activation": "linear", "use_bias": false, "kernel_initializer": {"class_name": "HeNormal", "config": {"seed": null}}, "bias_initializer": {"class_name": "Zeros", "config": {}}, "kernel_regularizer": null, "bias_regularizer": null, "activity_regularizer": null, "kernel_constraint": null, "bias_constraint": null}, "name": "stage3_1_fuse_conv3_1", "inbound_nodes": [[["stage3_1_branch3_basic4_out", 0, 0, {}]]]}, {"class_name": "Add", "config": {"name": "stage3_1_branch1_basic4_res", "trainable": true, "dtype": "float32"}, "name": "stage3_1_branch1_basic4_res", "inbound_nodes": [[["stage3_1_branch1_basic4_bn2", 0, 0, {}], ["stage3_1_branch1_basic3_out", 0, 0, {}]]]}, {"class_name": "BatchNormalization", "config": {"name": "stage3_1_fuse_bn2_1", "trainable": true, "dtype": "float32", "axis": [3], "momentum": 0.1, "epsilon": 0.001, "center": true, "scale": true, "beta_initializer": {"class_name": "Zeros", "config": {}}, "gamma_initializer": {"class_name": "Ones", "config": {}}, "moving_mean_initializer": {"class_name": "Zeros", "config": {}}, "moving_variance_initializer": {"class_name": "Ones", "config": {}}, "beta_regularizer": null, "gamma_regularizer": null, "beta_constraint": null, "gamma_constraint": null}, "name": "stage3_1_fuse_bn2_1", "inbound_nodes": [[["stage3_1_fuse_conv2_1", 0, 0, {}]]]}, {"class_name": "BatchNormalization", "config": {"name": "stage3_1_fuse_bn3_1", "trainable": true, "dtype": "float32", "axis": [3], "momentum": 0.1, "epsilon": 0.001, "center": true, "scale": true, "beta_initializer": {"class_name": "Zeros", "config": {}}, "gamma_initializer": {"class_name": "Ones", "config": {}}, "moving_mean_initializer": {"class_name": "Zeros", "config": {}}, "moving_variance_initializer": {"class_name": "Ones", "config": {}}, "beta_regularizer": null, "gamma_regularizer": null, "beta_constraint": null, "gamma_constraint": null}, "name": "stage3_1_fuse_bn3_1", "inbound_nodes": [[["stage3_1_fuse_conv3_1", 0, 0, {}]]]}, {"class_name": "Activation", "config": {"name": "stage3_1_branch1_basic4_out", "trainable": true, "dtype": "float32", "activation": "relu"}, "name": "stage3_1_branch1_basic4_out", "inbound_nodes": [[["stage3_1_branch1_basic4_res", 0, 0, {}]]]}, {"class_name": "UpSampling2D", "config": {"name": "stage3_1_fuse_up2_1", "trainable": true, "dtype": "float32", "size": [2, 2], "data_format": "channels_last", "interpolation": "nearest"}, "name": "stage3_1_fuse_up2_1", "inbound_nodes": [[["stage3_1_fuse_bn2_1", 0, 0, {}]]]}, {"class_name": "UpSampling2D", "config": {"name": "stage3_1_fuse_up3_1", "trainable": true, "dtype": "float32", "size": [4, 4], "data_format": "channels_last", "interpolation": "nearest"}, "name": "stage3_1_fuse_up3_1", "inbound_nodes": [[["stage3_1_fuse_bn3_1", 0, 0, {}]]]}, {"class_name": "Add", "config": {"name": "stage3_1_fuse_add1", "trainable": true, "dtype": "float32"}, "name": "stage3_1_fuse_add1", "inbound_nodes": [[["stage3_1_branch1_basic4_out", 0, 0, {}], ["stage3_1_fuse_up2_1", 0, 0, {}], ["stage3_1_fuse_up3_1", 0, 0, {}]]]}, {"class_name": "Activation", "config": {"name": "stage3_1_fuse_branch1_out", "trainable": true, "dtype": "float32", "activation": "relu"}, "name": "stage3_1_fuse_branch1_out", "inbound_nodes": [[["stage3_1_fuse_add1", 0, 0, {}]]]}, {"class_name": "Conv2D", "config": {"name": "stage3_1_fuse_conv3_2", "trainable": true, "dtype": "float32", "filters": 64, "kernel_size": [1, 1], "strides": [1, 1], "padding": "valid", "data_format": "channels_last", "dilation_rate": [1, 1], "groups": 1, "activation": "linear", "use_bias": false, "kernel_initializer": {"class_name": "HeNormal", "config": {"seed": null}}, "bias_initializer": {"class_name": "Zeros", "config": {}}, "kernel_regularizer": null, "bias_regularizer": null, "activity_regularizer": null, "kernel_constraint": null, "bias_constraint": null}, "name": "stage3_1_fuse_conv3_2", "inbound_nodes": [[["stage3_1_branch3_basic4_out", 0, 0, {}]]]}, {"class_name": "Conv2D", "config": {"name": "stage3_1_fuse_conv1_2", "trainable": true, "dtype": "float32", "filters": 64, "kernel_size": [3, 3], "strides": [2, 2], "padding": "same", "data_format": "channels_last", "dilation_rate": [1, 1], "groups": 1, "activation": "linear", "use_bias": false, "kernel_initializer": {"class_name": "HeNormal", "config": {"seed": null}}, "bias_initializer": {"class_name": "Zeros", "config": {}}, "kernel_regularizer": null, "bias_regularizer": null, "activity_regularizer": null, "kernel_constraint": null, "bias_constraint": null}, "name": "stage3_1_fuse_conv1_2", "inbound_nodes": [[["stage3_1_fuse_branch1_out", 0, 0, {}]]]}, {"class_name": "BatchNormalization", "config": {"name": "stage3_1_fuse_bn3_2", "trainable": true, "dtype": "float32", "axis": [3], "momentum": 0.1, "epsilon": 0.001, "center": true, "scale": true, "beta_initializer": {"class_name": "Zeros", "config": {}}, "gamma_initializer": {"class_name": "Ones", "config": {}}, "moving_mean_initializer": {"class_name": "Zeros", "config": {}}, "moving_variance_initializer": {"class_name": "Ones", "config": {}}, "beta_regularizer": null, "gamma_regularizer": null, "beta_constraint": null, "gamma_constraint": null}, "name": "stage3_1_fuse_bn3_2", "inbound_nodes": [[["stage3_1_fuse_conv3_2", 0, 0, {}]]]}, {"class_name": "BatchNormalization", "config": {"name": "stage3_1_fuse_bn1_2", "trainable": true, "dtype": "float32", "axis": [3], "momentum": 0.1, "epsilon": 0.001, "center": true, "scale": true, "beta_initializer": {"class_name": "Zeros", "config": {}}, "gamma_initializer": {"class_name": "Ones", "config": {}}, "moving_mean_initializer": {"class_name": "Zeros", "config": {}}, "moving_variance_initializer": {"class_name": "Ones", "config": {}}, "beta_regularizer": null, "gamma_regularizer": null, "beta_constraint": null, "gamma_constraint": null}, "name": "stage3_1_fuse_bn1_2", "inbound_nodes": [[["stage3_1_fuse_conv1_2", 0, 0, {}]]]}, {"class_name": "UpSampling2D", "config": {"name": "stage3_1_fuse_up3_2", "trainable": true, "dtype": "float32", "size": [2, 2], "data_format": "channels_last", "interpolation": "nearest"}, "name": "stage3_1_fuse_up3_2", "inbound_nodes": [[["stage3_1_fuse_bn3_2", 0, 0, {}]]]}, {"class_name": "Conv2D", "config": {"name": "stage3_1_fuse_conv1_3_1", "trainable": true, "dtype": "float32", "filters": 32, "kernel_size": [3, 3], "strides": [2, 2], "padding": "same", "data_format": "channels_last", "dilation_rate": [1, 1], "groups": 1, "activation": "linear", "use_bias": false, "kernel_initializer": {"class_name": "HeNormal", "config": {"seed": null}}, "bias_initializer": {"class_name": "Zeros", "config": {}}, "kernel_regularizer": null, "bias_regularizer": null, "activity_regularizer": null, "kernel_constraint": null, "bias_constraint": null}, "name": "stage3_1_fuse_conv1_3_1", "inbound_nodes": [[["stage3_1_fuse_branch1_out", 0, 0, {}]]]}, {"class_name": "Add", "config": {"name": "stage3_1_fuse_add2", "trainable": true, "dtype": "float32"}, "name": "stage3_1_fuse_add2", "inbound_nodes": [[["stage3_1_fuse_bn1_2", 0, 0, {}], ["stage3_1_branch2_basic4_out", 0, 0, {}], ["stage3_1_fuse_up3_2", 0, 0, {}]]]}, {"class_name": "BatchNormalization", "config": {"name": "stage3_1_fuse_bn1_3_1", "trainable": true, "dtype": "float32", "axis": [3], "momentum": 0.1, "epsilon": 0.001, "center": true, "scale": true, "beta_initializer": {"class_name": "Zeros", "config": {}}, "gamma_initializer": {"class_name": "Ones", "config": {}}, "moving_mean_initializer": {"class_name": "Zeros", "config": {}}, "moving_variance_initializer": {"class_name": "Ones", "config": {}}, "beta_regularizer": null, "gamma_regularizer": null, "beta_constraint": null, "gamma_constraint": null}, "name": "stage3_1_fuse_bn1_3_1", "inbound_nodes": [[["stage3_1_fuse_conv1_3_1", 0, 0, {}]]]}, {"class_name": "Activation", "config": {"name": "stage3_1_fuse_branch2_out", "trainable": true, "dtype": "float32", "activation": "relu"}, "name": "stage3_1_fuse_branch2_out", "inbound_nodes": [[["stage3_1_fuse_add2", 0, 0, {}]]]}, {"class_name": "Activation", "config": {"name": "stage3_1_fuse_relu1_3_1", "trainable": true, "dtype": "float32", "activation": "relu"}, "name": "stage3_1_fuse_relu1_3_1", "inbound_nodes": [[["stage3_1_fuse_bn1_3_1", 0, 0, {}]]]}, {"class_name": "Conv2D", "config": {"name": "stage3_1_fuse_conv1_3_2", "trainable": true, "dtype": "float32", "filters": 128, "kernel_size": [3, 3], "strides": [2, 2], "padding": "same", "data_format": "channels_last", "dilation_rate": [1, 1], "groups": 1, "activation": "linear", "use_bias": false, "kernel_initializer": {"class_name": "HeNormal", "config": {"seed": null}}, "bias_initializer": {"class_name": "Zeros", "config": {}}, "kernel_regularizer": null, "bias_regularizer": null, "activity_regularizer": null, "kernel_constraint": null, "bias_constraint": null}, "name": "stage3_1_fuse_conv1_3_2", "inbound_nodes": [[["stage3_1_fuse_relu1_3_1", 0, 0, {}]]]}, {"class_name": "Conv2D", "config": {"name": "stage3_1_fuse_conv2_3", "trainable": true, "dtype": "float32", "filters": 128, "kernel_size": [3, 3], "strides": [2, 2], "padding": "same", "data_format": "channels_last", "dilation_rate": [1, 1], "groups": 1, "activation": "linear", "use_bias": false, "kernel_initializer": {"class_name": "HeNormal", "config": {"seed": null}}, "bias_initializer": {"class_name": "Zeros", "config": {}}, "kernel_regularizer": null, "bias_regularizer": null, "activity_regularizer": null, "kernel_constraint": null, "bias_constraint": null}, "name": "stage3_1_fuse_conv2_3", "inbound_nodes": [[["stage3_1_fuse_branch2_out", 0, 0, {}]]]}, {"class_name": "BatchNormalization", "config": {"name": "stage3_1_fuse_bn1_3_2", "trainable": true, "dtype": "float32", "axis": [3], "momentum": 0.1, "epsilon": 0.001, "center": true, "scale": true, "beta_initializer": {"class_name": "Zeros", "config": {}}, "gamma_initializer": {"class_name": "Ones", "config": {}}, "moving_mean_initializer": {"class_name": "Zeros", "config": {}}, "moving_variance_initializer": {"class_name": "Ones", "config": {}}, "beta_regularizer": null, "gamma_regularizer": null, "beta_constraint": null, "gamma_constraint": null}, "name": "stage3_1_fuse_bn1_3_2", "inbound_nodes": [[["stage3_1_fuse_conv1_3_2", 0, 0, {}]]]}, {"class_name": "BatchNormalization", "config": {"name": "stage3_1_fuse_bn2_3", "trainable": true, "dtype": "float32", "axis": [3], "momentum": 0.1, "epsilon": 0.001, "center": true, "scale": true, "beta_initializer": {"class_name": "Zeros", "config": {}}, "gamma_initializer": {"class_name": "Ones", "config": {}}, "moving_mean_initializer": {"class_name": "Zeros", "config": {}}, "moving_variance_initializer": {"class_name": "Ones", "config": {}}, "beta_regularizer": null, "gamma_regularizer": null, "beta_constraint": null, "gamma_constraint": null}, "name": "stage3_1_fuse_bn2_3", "inbound_nodes": [[["stage3_1_fuse_conv2_3", 0, 0, {}]]]}, {"class_name": "Add", "config": {"name": "stage3_1_fuse_add3", "trainable": true, "dtype": "float32"}, "name": "stage3_1_fuse_add3", "inbound_nodes": [[["stage3_1_fuse_bn1_3_2", 0, 0, {}], ["stage3_1_fuse_bn2_3", 0, 0, {}], ["stage3_1_branch3_basic4_out", 0, 0, {}]]]}, {"class_name": "Activation", "config": {"name": "stage3_1_fuse_branch3_out", "trainable": true, "dtype": "float32", "activation": "relu"}, "name": "stage3_1_fuse_branch3_out", "inbound_nodes": [[["stage3_1_fuse_add3", 0, 0, {}]]]}, {"class_name": "Conv2D", "config": {"name": "stage3_2_branch2_basic1_conv1", "trainable": true, "dtype": "float32", "filters": 64, "kernel_size": [3, 3], "strides": [1, 1], "padding": "same", "data_format": "channels_last", "dilation_rate": [1, 1], "groups": 1, "activation": "linear", "use_bias": false, "kernel_initializer": {"class_name": "HeNormal", "config": {"seed": null}}, "bias_initializer": {"class_name": "Zeros", "config": {}}, "kernel_regularizer": null, "bias_regularizer": null, "activity_regularizer": null, "kernel_constraint": null, "bias_constraint": null}, "name": "stage3_2_branch2_basic1_conv1", "inbound_nodes": [[["stage3_1_fuse_branch2_out", 0, 0, {}]]]}, {"class_name": "Conv2D", "config": {"name": "stage3_2_branch3_basic1_conv1", "trainable": true, "dtype": "float32", "filters": 128, "kernel_size": [3, 3], "strides": [1, 1], "padding": "same", "data_format": "channels_last", "dilation_rate": [1, 1], "groups": 1, "activation": "linear", "use_bias": false, "kernel_initializer": {"class_name": "HeNormal", "config": {"seed": null}}, "bias_initializer": {"class_name": "Zeros", "config": {}}, "kernel_regularizer": null, "bias_regularizer": null, "activity_regularizer": null, "kernel_constraint": null, "bias_constraint": null}, "name": "stage3_2_branch3_basic1_conv1", "inbound_nodes": [[["stage3_1_fuse_branch3_out", 0, 0, {}]]]}, {"class_name": "BatchNormalization", "config": {"name": "stage3_2_branch2_basic1_bn1", "trainable": true, "dtype": "float32", "axis": [3], "momentum": 0.1, "epsilon": 0.001, "center": true, "scale": true, "beta_initializer": {"class_name": "Zeros", "config": {}}, "gamma_initializer": {"class_name": "Ones", "config": {}}, "moving_mean_initializer": {"class_name": "Zeros", "config": {}}, "moving_variance_initializer": {"class_name": "Ones", "config": {}}, "beta_regularizer": null, "gamma_regularizer": null, "beta_constraint": null, "gamma_constraint": null}, "name": "stage3_2_branch2_basic1_bn1", "inbound_nodes": [[["stage3_2_branch2_basic1_conv1", 0, 0, {}]]]}, {"class_name": "BatchNormalization", "config": {"name": "stage3_2_branch3_basic1_bn1", "trainable": true, "dtype": "float32", "axis": [3], "momentum": 0.1, "epsilon": 0.001, "center": true, "scale": true, "beta_initializer": {"class_name": "Zeros", "config": {}}, "gamma_initializer": {"class_name": "Ones", "config": {}}, "moving_mean_initializer": {"class_name": "Zeros", "config": {}}, "moving_variance_initializer": {"class_name": "Ones", "config": {}}, "beta_regularizer": null, "gamma_regularizer": null, "beta_constraint": null, "gamma_constraint": null}, "name": "stage3_2_branch3_basic1_bn1", "inbound_nodes": [[["stage3_2_branch3_basic1_conv1", 0, 0, {}]]]}, {"class_name": "Activation", "config": {"name": "stage3_2_branch2_basic1_relu1", "trainable": true, "dtype": "float32", "activation": "relu"}, "name": "stage3_2_branch2_basic1_relu1", "inbound_nodes": [[["stage3_2_branch2_basic1_bn1", 0, 0, {}]]]}, {"class_name": "Activation", "config": {"name": "stage3_2_branch3_basic1_relu1", "trainable": true, "dtype": "float32", "activation": "relu"}, "name": "stage3_2_branch3_basic1_relu1", "inbound_nodes": [[["stage3_2_branch3_basic1_bn1", 0, 0, {}]]]}, {"class_name": "Conv2D", "config": {"name": "stage3_2_branch1_basic1_conv1", "trainable": true, "dtype": "float32", "filters": 32, "kernel_size": [3, 3], "strides": [1, 1], "padding": "same", "data_format": "channels_last", "dilation_rate": [1, 1], "groups": 1, "activation": "linear", "use_bias": false, "kernel_initializer": {"class_name": "HeNormal", "config": {"seed": null}}, "bias_initializer": {"class_name": "Zeros", "config": {}}, "kernel_regularizer": null, "bias_regularizer": null, "activity_regularizer": null, "kernel_constraint": null, "bias_constraint": null}, "name": "stage3_2_branch1_basic1_conv1", "inbound_nodes": [[["stage3_1_fuse_branch1_out", 0, 0, {}]]]}, {"class_name": "Conv2D", "config": {"name": "stage3_2_branch2_basic1_conv2", "trainable": true, "dtype": "float32", "filters": 64, "kernel_size": [3, 3], "strides": [1, 1], "padding": "same", "data_format": "channels_last", "dilation_rate": [1, 1], "groups": 1, "activation": "linear", "use_bias": false, "kernel_initializer": {"class_name": "HeNormal", "config": {"seed": null}}, "bias_initializer": {"class_name": "Zeros", "config": {}}, "kernel_regularizer": null, "bias_regularizer": null, "activity_regularizer": null, "kernel_constraint": null, "bias_constraint": null}, "name": "stage3_2_branch2_basic1_conv2", "inbound_nodes": [[["stage3_2_branch2_basic1_relu1", 0, 0, {}]]]}, {"class_name": "Conv2D", "config": {"name": "stage3_2_branch3_basic1_conv2", "trainable": true, "dtype": "float32", "filters": 128, "kernel_size": [3, 3], "strides": [1, 1], "padding": "same", "data_format": "channels_last", "dilation_rate": [1, 1], "groups": 1, "activation": "linear", "use_bias": false, "kernel_initializer": {"class_name": "HeNormal", "config": {"seed": null}}, "bias_initializer": {"class_name": "Zeros", "config": {}}, "kernel_regularizer": null, "bias_regularizer": null, "activity_regularizer": null, "kernel_constraint": null, "bias_constraint": null}, "name": "stage3_2_branch3_basic1_conv2", "inbound_nodes": [[["stage3_2_branch3_basic1_relu1", 0, 0, {}]]]}, {"class_name": "BatchNormalization", "config": {"name": "stage3_2_branch1_basic1_bn1", "trainable": true, "dtype": "float32", "axis": [3], "momentum": 0.1, "epsilon": 0.001, "center": true, "scale": true, "beta_initializer": {"class_name": "Zeros", "config": {}}, "gamma_initializer": {"class_name": "Ones", "config": {}}, "moving_mean_initializer": {"class_name": "Zeros", "config": {}}, "moving_variance_initializer": {"class_name": "Ones", "config": {}}, "beta_regularizer": null, "gamma_regularizer": null, "beta_constraint": null, "gamma_constraint": null}, "name": "stage3_2_branch1_basic1_bn1", "inbound_nodes": [[["stage3_2_branch1_basic1_conv1", 0, 0, {}]]]}, {"class_name": "BatchNormalization", "config": {"name": "stage3_2_branch2_basic1_bn2", "trainable": true, "dtype": "float32", "axis": [3], "momentum": 0.1, "epsilon": 0.001, "center": true, "scale": true, "beta_initializer": {"class_name": "Zeros", "config": {}}, "gamma_initializer": {"class_name": "Ones", "config": {}}, "moving_mean_initializer": {"class_name": "Zeros", "config": {}}, "moving_variance_initializer": {"class_name": "Ones", "config": {}}, "beta_regularizer": null, "gamma_regularizer": null, "beta_constraint": null, "gamma_constraint": null}, "name": "stage3_2_branch2_basic1_bn2", "inbound_nodes": [[["stage3_2_branch2_basic1_conv2", 0, 0, {}]]]}, {"class_name": "BatchNormalization", "config": {"name": "stage3_2_branch3_basic1_bn2", "trainable": true, "dtype": "float32", "axis": [3], "momentum": 0.1, "epsilon": 0.001, "center": true, "scale": true, "beta_initializer": {"class_name": "Zeros", "config": {}}, "gamma_initializer": {"class_name": "Ones", "config": {}}, "moving_mean_initializer": {"class_name": "Zeros", "config": {}}, "moving_variance_initializer": {"class_name": "Ones", "config": {}}, "beta_regularizer": null, "gamma_regularizer": null, "beta_constraint": null, "gamma_constraint": null}, "name": "stage3_2_branch3_basic1_bn2", "inbound_nodes": [[["stage3_2_branch3_basic1_conv2", 0, 0, {}]]]}, {"class_name": "Activation", "config": {"name": "stage3_2_branch1_basic1_relu1", "trainable": true, "dtype": "float32", "activation": "relu"}, "name": "stage3_2_branch1_basic1_relu1", "inbound_nodes": [[["stage3_2_branch1_basic1_bn1", 0, 0, {}]]]}, {"class_name": "Add", "config": {"name": "stage3_2_branch2_basic1_res", "trainable": true, "dtype": "float32"}, "name": "stage3_2_branch2_basic1_res", "inbound_nodes": [[["stage3_2_branch2_basic1_bn2", 0, 0, {}], ["stage3_1_fuse_branch2_out", 0, 0, {}]]]}, {"class_name": "Add", "config": {"name": "stage3_2_branch3_basic1_res", "trainable": true, "dtype": "float32"}, "name": "stage3_2_branch3_basic1_res", "inbound_nodes": [[["stage3_2_branch3_basic1_bn2", 0, 0, {}], ["stage3_1_fuse_branch3_out", 0, 0, {}]]]}, {"class_name": "Conv2D", "config": {"name": "stage3_2_branch1_basic1_conv2", "trainable": true, "dtype": "float32", "filters": 32, "kernel_size": [3, 3], "strides": [1, 1], "padding": "same", "data_format": "channels_last", "dilation_rate": [1, 1], "groups": 1, "activation": "linear", "use_bias": false, "kernel_initializer": {"class_name": "HeNormal", "config": {"seed": null}}, "bias_initializer": {"class_name": "Zeros", "config": {}}, "kernel_regularizer": null, "bias_regularizer": null, "activity_regularizer": null, "kernel_constraint": null, "bias_constraint": null}, "name": "stage3_2_branch1_basic1_conv2", "inbound_nodes": [[["stage3_2_branch1_basic1_relu1", 0, 0, {}]]]}, {"class_name": "Activation", "config": {"name": "stage3_2_branch2_basic1_out", "trainable": true, "dtype": "float32", "activation": "relu"}, "name": "stage3_2_branch2_basic1_out", "inbound_nodes": [[["stage3_2_branch2_basic1_res", 0, 0, {}]]]}, {"class_name": "Activation", "config": {"name": "stage3_2_branch3_basic1_out", "trainable": true, "dtype": "float32", "activation": "relu"}, "name": "stage3_2_branch3_basic1_out", "inbound_nodes": [[["stage3_2_branch3_basic1_res", 0, 0, {}]]]}, {"class_name": "BatchNormalization", "config": {"name": "stage3_2_branch1_basic1_bn2", "trainable": true, "dtype": "float32", "axis": [3], "momentum": 0.1, "epsilon": 0.001, "center": true, "scale": true, "beta_initializer": {"class_name": "Zeros", "config": {}}, "gamma_initializer": {"class_name": "Ones", "config": {}}, "moving_mean_initializer": {"class_name": "Zeros", "config": {}}, "moving_variance_initializer": {"class_name": "Ones", "config": {}}, "beta_regularizer": null, "gamma_regularizer": null, "beta_constraint": null, "gamma_constraint": null}, "name": "stage3_2_branch1_basic1_bn2", "inbound_nodes": [[["stage3_2_branch1_basic1_conv2", 0, 0, {}]]]}, {"class_name": "Conv2D", "config": {"name": "stage3_2_branch2_basic2_conv1", "trainable": true, "dtype": "float32", "filters": 64, "kernel_size": [3, 3], "strides": [1, 1], "padding": "same", "data_format": "channels_last", "dilation_rate": [1, 1], "groups": 1, "activation": "linear", "use_bias": false, "kernel_initializer": {"class_name": "HeNormal", "config": {"seed": null}}, "bias_initializer": {"class_name": "Zeros", "config": {}}, "kernel_regularizer": null, "bias_regularizer": null, "activity_regularizer": null, "kernel_constraint": null, "bias_constraint": null}, "name": "stage3_2_branch2_basic2_conv1", "inbound_nodes": [[["stage3_2_branch2_basic1_out", 0, 0, {}]]]}, {"class_name": "Conv2D", "config": {"name": "stage3_2_branch3_basic2_conv1", "trainable": true, "dtype": "float32", "filters": 128, "kernel_size": [3, 3], "strides": [1, 1], "padding": "same", "data_format": "channels_last", "dilation_rate": [1, 1], "groups": 1, "activation": "linear", "use_bias": false, "kernel_initializer": {"class_name": "HeNormal", "config": {"seed": null}}, "bias_initializer": {"class_name": "Zeros", "config": {}}, "kernel_regularizer": null, "bias_regularizer": null, "activity_regularizer": null, "kernel_constraint": null, "bias_constraint": null}, "name": "stage3_2_branch3_basic2_conv1", "inbound_nodes": [[["stage3_2_branch3_basic1_out", 0, 0, {}]]]}, {"class_name": "Add", "config": {"name": "stage3_2_branch1_basic1_res", "trainable": true, "dtype": "float32"}, "name": "stage3_2_branch1_basic1_res", "inbound_nodes": [[["stage3_2_branch1_basic1_bn2", 0, 0, {}], ["stage3_1_fuse_branch1_out", 0, 0, {}]]]}, {"class_name": "BatchNormalization", "config": {"name": "stage3_2_branch2_basic2_bn1", "trainable": true, "dtype": "float32", "axis": [3], "momentum": 0.1, "epsilon": 0.001, "center": true, "scale": true, "beta_initializer": {"class_name": "Zeros", "config": {}}, "gamma_initializer": {"class_name": "Ones", "config": {}}, "moving_mean_initializer": {"class_name": "Zeros", "config": {}}, "moving_variance_initializer": {"class_name": "Ones", "config": {}}, "beta_regularizer": null, "gamma_regularizer": null, "beta_constraint": null, "gamma_constraint": null}, "name": "stage3_2_branch2_basic2_bn1", "inbound_nodes": [[["stage3_2_branch2_basic2_conv1", 0, 0, {}]]]}, {"class_name": "BatchNormalization", "config": {"name": "stage3_2_branch3_basic2_bn1", "trainable": true, "dtype": "float32", "axis": [3], "momentum": 0.1, "epsilon": 0.001, "center": true, "scale": true, "beta_initializer": {"class_name": "Zeros", "config": {}}, "gamma_initializer": {"class_name": "Ones", "config": {}}, "moving_mean_initializer": {"class_name": "Zeros", "config": {}}, "moving_variance_initializer": {"class_name": "Ones", "config": {}}, "beta_regularizer": null, "gamma_regularizer": null, "beta_constraint": null, "gamma_constraint": null}, "name": "stage3_2_branch3_basic2_bn1", "inbound_nodes": [[["stage3_2_branch3_basic2_conv1", 0, 0, {}]]]}, {"class_name": "Activation", "config": {"name": "stage3_2_branch1_basic1_out", "trainable": true, "dtype": "float32", "activation": "relu"}, "name": "stage3_2_branch1_basic1_out", "inbound_nodes": [[["stage3_2_branch1_basic1_res", 0, 0, {}]]]}, {"class_name": "Activation", "config": {"name": "stage3_2_branch2_basic2_relu1", "trainable": true, "dtype": "float32", "activation": "relu"}, "name": "stage3_2_branch2_basic2_relu1", "inbound_nodes": [[["stage3_2_branch2_basic2_bn1", 0, 0, {}]]]}, {"class_name": "Activation", "config": {"name": "stage3_2_branch3_basic2_relu1", "trainable": true, "dtype": "float32", "activation": "relu"}, "name": "stage3_2_branch3_basic2_relu1", "inbound_nodes": [[["stage3_2_branch3_basic2_bn1", 0, 0, {}]]]}, {"class_name": "Conv2D", "config": {"name": "stage3_2_branch1_basic2_conv1", "trainable": true, "dtype": "float32", "filters": 32, "kernel_size": [3, 3], "strides": [1, 1], "padding": "same", "data_format": "channels_last", "dilation_rate": [1, 1], "groups": 1, "activation": "linear", "use_bias": false, "kernel_initializer": {"class_name": "HeNormal", "config": {"seed": null}}, "bias_initializer": {"class_name": "Zeros", "config": {}}, "kernel_regularizer": null, "bias_regularizer": null, "activity_regularizer": null, "kernel_constraint": null, "bias_constraint": null}, "name": "stage3_2_branch1_basic2_conv1", "inbound_nodes": [[["stage3_2_branch1_basic1_out", 0, 0, {}]]]}, {"class_name": "Conv2D", "config": {"name": "stage3_2_branch2_basic2_conv2", "trainable": true, "dtype": "float32", "filters": 64, "kernel_size": [3, 3], "strides": [1, 1], "padding": "same", "data_format": "channels_last", "dilation_rate": [1, 1], "groups": 1, "activation": "linear", "use_bias": false, "kernel_initializer": {"class_name": "HeNormal", "config": {"seed": null}}, "bias_initializer": {"class_name": "Zeros", "config": {}}, "kernel_regularizer": null, "bias_regularizer": null, "activity_regularizer": null, "kernel_constraint": null, "bias_constraint": null}, "name": "stage3_2_branch2_basic2_conv2", "inbound_nodes": [[["stage3_2_branch2_basic2_relu1", 0, 0, {}]]]}, {"class_name": "Conv2D", "config": {"name": "stage3_2_branch3_basic2_conv2", "trainable": true, "dtype": "float32", "filters": 128, "kernel_size": [3, 3], "strides": [1, 1], "padding": "same", "data_format": "channels_last", "dilation_rate": [1, 1], "groups": 1, "activation": "linear", "use_bias": false, "kernel_initializer": {"class_name": "HeNormal", "config": {"seed": null}}, "bias_initializer": {"class_name": "Zeros", "config": {}}, "kernel_regularizer": null, "bias_regularizer": null, "activity_regularizer": null, "kernel_constraint": null, "bias_constraint": null}, "name": "stage3_2_branch3_basic2_conv2", "inbound_nodes": [[["stage3_2_branch3_basic2_relu1", 0, 0, {}]]]}, {"class_name": "BatchNormalization", "config": {"name": "stage3_2_branch1_basic2_bn1", "trainable": true, "dtype": "float32", "axis": [3], "momentum": 0.1, "epsilon": 0.001, "center": true, "scale": true, "beta_initializer": {"class_name": "Zeros", "config": {}}, "gamma_initializer": {"class_name": "Ones", "config": {}}, "moving_mean_initializer": {"class_name": "Zeros", "config": {}}, "moving_variance_initializer": {"class_name": "Ones", "config": {}}, "beta_regularizer": null, "gamma_regularizer": null, "beta_constraint": null, "gamma_constraint": null}, "name": "stage3_2_branch1_basic2_bn1", "inbound_nodes": [[["stage3_2_branch1_basic2_conv1", 0, 0, {}]]]}, {"class_name": "BatchNormalization", "config": {"name": "stage3_2_branch2_basic2_bn2", "trainable": true, "dtype": "float32", "axis": [3], "momentum": 0.1, "epsilon": 0.001, "center": true, "scale": true, "beta_initializer": {"class_name": "Zeros", "config": {}}, "gamma_initializer": {"class_name": "Ones", "config": {}}, "moving_mean_initializer": {"class_name": "Zeros", "config": {}}, "moving_variance_initializer": {"class_name": "Ones", "config": {}}, "beta_regularizer": null, "gamma_regularizer": null, "beta_constraint": null, "gamma_constraint": null}, "name": "stage3_2_branch2_basic2_bn2", "inbound_nodes": [[["stage3_2_branch2_basic2_conv2", 0, 0, {}]]]}, {"class_name": "BatchNormalization", "config": {"name": "stage3_2_branch3_basic2_bn2", "trainable": true, "dtype": "float32", "axis": [3], "momentum": 0.1, "epsilon": 0.001, "center": true, "scale": true, "beta_initializer": {"class_name": "Zeros", "config": {}}, "gamma_initializer": {"class_name": "Ones", "config": {}}, "moving_mean_initializer": {"class_name": "Zeros", "config": {}}, "moving_variance_initializer": {"class_name": "Ones", "config": {}}, "beta_regularizer": null, "gamma_regularizer": null, "beta_constraint": null, "gamma_constraint": null}, "name": "stage3_2_branch3_basic2_bn2", "inbound_nodes": [[["stage3_2_branch3_basic2_conv2", 0, 0, {}]]]}, {"class_name": "Activation", "config": {"name": "stage3_2_branch1_basic2_relu1", "trainable": true, "dtype": "float32", "activation": "relu"}, "name": "stage3_2_branch1_basic2_relu1", "inbound_nodes": [[["stage3_2_branch1_basic2_bn1", 0, 0, {}]]]}, {"class_name": "Add", "config": {"name": "stage3_2_branch2_basic2_res", "trainable": true, "dtype": "float32"}, "name": "stage3_2_branch2_basic2_res", "inbound_nodes": [[["stage3_2_branch2_basic2_bn2", 0, 0, {}], ["stage3_2_branch2_basic1_out", 0, 0, {}]]]}, {"class_name": "Add", "config": {"name": "stage3_2_branch3_basic2_res", "trainable": true, "dtype": "float32"}, "name": "stage3_2_branch3_basic2_res", "inbound_nodes": [[["stage3_2_branch3_basic2_bn2", 0, 0, {}], ["stage3_2_branch3_basic1_out", 0, 0, {}]]]}, {"class_name": "Conv2D", "config": {"name": "stage3_2_branch1_basic2_conv2", "trainable": true, "dtype": "float32", "filters": 32, "kernel_size": [3, 3], "strides": [1, 1], "padding": "same", "data_format": "channels_last", "dilation_rate": [1, 1], "groups": 1, "activation": "linear", "use_bias": false, "kernel_initializer": {"class_name": "HeNormal", "config": {"seed": null}}, "bias_initializer": {"class_name": "Zeros", "config": {}}, "kernel_regularizer": null, "bias_regularizer": null, "activity_regularizer": null, "kernel_constraint": null, "bias_constraint": null}, "name": "stage3_2_branch1_basic2_conv2", "inbound_nodes": [[["stage3_2_branch1_basic2_relu1", 0, 0, {}]]]}, {"class_name": "Activation", "config": {"name": "stage3_2_branch2_basic2_out", "trainable": true, "dtype": "float32", "activation": "relu"}, "name": "stage3_2_branch2_basic2_out", "inbound_nodes": [[["stage3_2_branch2_basic2_res", 0, 0, {}]]]}, {"class_name": "Activation", "config": {"name": "stage3_2_branch3_basic2_out", "trainable": true, "dtype": "float32", "activation": "relu"}, "name": "stage3_2_branch3_basic2_out", "inbound_nodes": [[["stage3_2_branch3_basic2_res", 0, 0, {}]]]}, {"class_name": "BatchNormalization", "config": {"name": "stage3_2_branch1_basic2_bn2", "trainable": true, "dtype": "float32", "axis": [3], "momentum": 0.1, "epsilon": 0.001, "center": true, "scale": true, "beta_initializer": {"class_name": "Zeros", "config": {}}, "gamma_initializer": {"class_name": "Ones", "config": {}}, "moving_mean_initializer": {"class_name": "Zeros", "config": {}}, "moving_variance_initializer": {"class_name": "Ones", "config": {}}, "beta_regularizer": null, "gamma_regularizer": null, "beta_constraint": null, "gamma_constraint": null}, "name": "stage3_2_branch1_basic2_bn2", "inbound_nodes": [[["stage3_2_branch1_basic2_conv2", 0, 0, {}]]]}, {"class_name": "Conv2D", "config": {"name": "stage3_2_branch2_basic3_conv1", "trainable": true, "dtype": "float32", "filters": 64, "kernel_size": [3, 3], "strides": [1, 1], "padding": "same", "data_format": "channels_last", "dilation_rate": [1, 1], "groups": 1, "activation": "linear", "use_bias": false, "kernel_initializer": {"class_name": "HeNormal", "config": {"seed": null}}, "bias_initializer": {"class_name": "Zeros", "config": {}}, "kernel_regularizer": null, "bias_regularizer": null, "activity_regularizer": null, "kernel_constraint": null, "bias_constraint": null}, "name": "stage3_2_branch2_basic3_conv1", "inbound_nodes": [[["stage3_2_branch2_basic2_out", 0, 0, {}]]]}, {"class_name": "Conv2D", "config": {"name": "stage3_2_branch3_basic3_conv1", "trainable": true, "dtype": "float32", "filters": 128, "kernel_size": [3, 3], "strides": [1, 1], "padding": "same", "data_format": "channels_last", "dilation_rate": [1, 1], "groups": 1, "activation": "linear", "use_bias": false, "kernel_initializer": {"class_name": "HeNormal", "config": {"seed": null}}, "bias_initializer": {"class_name": "Zeros", "config": {}}, "kernel_regularizer": null, "bias_regularizer": null, "activity_regularizer": null, "kernel_constraint": null, "bias_constraint": null}, "name": "stage3_2_branch3_basic3_conv1", "inbound_nodes": [[["stage3_2_branch3_basic2_out", 0, 0, {}]]]}, {"class_name": "Add", "config": {"name": "stage3_2_branch1_basic2_res", "trainable": true, "dtype": "float32"}, "name": "stage3_2_branch1_basic2_res", "inbound_nodes": [[["stage3_2_branch1_basic2_bn2", 0, 0, {}], ["stage3_2_branch1_basic1_out", 0, 0, {}]]]}, {"class_name": "BatchNormalization", "config": {"name": "stage3_2_branch2_basic3_bn1", "trainable": true, "dtype": "float32", "axis": [3], "momentum": 0.1, "epsilon": 0.001, "center": true, "scale": true, "beta_initializer": {"class_name": "Zeros", "config": {}}, "gamma_initializer": {"class_name": "Ones", "config": {}}, "moving_mean_initializer": {"class_name": "Zeros", "config": {}}, "moving_variance_initializer": {"class_name": "Ones", "config": {}}, "beta_regularizer": null, "gamma_regularizer": null, "beta_constraint": null, "gamma_constraint": null}, "name": "stage3_2_branch2_basic3_bn1", "inbound_nodes": [[["stage3_2_branch2_basic3_conv1", 0, 0, {}]]]}, {"class_name": "BatchNormalization", "config": {"name": "stage3_2_branch3_basic3_bn1", "trainable": true, "dtype": "float32", "axis": [3], "momentum": 0.1, "epsilon": 0.001, "center": true, "scale": true, "beta_initializer": {"class_name": "Zeros", "config": {}}, "gamma_initializer": {"class_name": "Ones", "config": {}}, "moving_mean_initializer": {"class_name": "Zeros", "config": {}}, "moving_variance_initializer": {"class_name": "Ones", "config": {}}, "beta_regularizer": null, "gamma_regularizer": null, "beta_constraint": null, "gamma_constraint": null}, "name": "stage3_2_branch3_basic3_bn1", "inbound_nodes": [[["stage3_2_branch3_basic3_conv1", 0, 0, {}]]]}, {"class_name": "Activation", "config": {"name": "stage3_2_branch1_basic2_out", "trainable": true, "dtype": "float32", "activation": "relu"}, "name": "stage3_2_branch1_basic2_out", "inbound_nodes": [[["stage3_2_branch1_basic2_res", 0, 0, {}]]]}, {"class_name": "Activation", "config": {"name": "stage3_2_branch2_basic3_relu1", "trainable": true, "dtype": "float32", "activation": "relu"}, "name": "stage3_2_branch2_basic3_relu1", "inbound_nodes": [[["stage3_2_branch2_basic3_bn1", 0, 0, {}]]]}, {"class_name": "Activation", "config": {"name": "stage3_2_branch3_basic3_relu1", "trainable": true, "dtype": "float32", "activation": "relu"}, "name": "stage3_2_branch3_basic3_relu1", "inbound_nodes": [[["stage3_2_branch3_basic3_bn1", 0, 0, {}]]]}, {"class_name": "Conv2D", "config": {"name": "stage3_2_branch1_basic3_conv1", "trainable": true, "dtype": "float32", "filters": 32, "kernel_size": [3, 3], "strides": [1, 1], "padding": "same", "data_format": "channels_last", "dilation_rate": [1, 1], "groups": 1, "activation": "linear", "use_bias": false, "kernel_initializer": {"class_name": "HeNormal", "config": {"seed": null}}, "bias_initializer": {"class_name": "Zeros", "config": {}}, "kernel_regularizer": null, "bias_regularizer": null, "activity_regularizer": null, "kernel_constraint": null, "bias_constraint": null}, "name": "stage3_2_branch1_basic3_conv1", "inbound_nodes": [[["stage3_2_branch1_basic2_out", 0, 0, {}]]]}, {"class_name": "Conv2D", "config": {"name": "stage3_2_branch2_basic3_conv2", "trainable": true, "dtype": "float32", "filters": 64, "kernel_size": [3, 3], "strides": [1, 1], "padding": "same", "data_format": "channels_last", "dilation_rate": [1, 1], "groups": 1, "activation": "linear", "use_bias": false, "kernel_initializer": {"class_name": "HeNormal", "config": {"seed": null}}, "bias_initializer": {"class_name": "Zeros", "config": {}}, "kernel_regularizer": null, "bias_regularizer": null, "activity_regularizer": null, "kernel_constraint": null, "bias_constraint": null}, "name": "stage3_2_branch2_basic3_conv2", "inbound_nodes": [[["stage3_2_branch2_basic3_relu1", 0, 0, {}]]]}, {"class_name": "Conv2D", "config": {"name": "stage3_2_branch3_basic3_conv2", "trainable": true, "dtype": "float32", "filters": 128, "kernel_size": [3, 3], "strides": [1, 1], "padding": "same", "data_format": "channels_last", "dilation_rate": [1, 1], "groups": 1, "activation": "linear", "use_bias": false, "kernel_initializer": {"class_name": "HeNormal", "config": {"seed": null}}, "bias_initializer": {"class_name": "Zeros", "config": {}}, "kernel_regularizer": null, "bias_regularizer": null, "activity_regularizer": null, "kernel_constraint": null, "bias_constraint": null}, "name": "stage3_2_branch3_basic3_conv2", "inbound_nodes": [[["stage3_2_branch3_basic3_relu1", 0, 0, {}]]]}, {"class_name": "BatchNormalization", "config": {"name": "stage3_2_branch1_basic3_bn1", "trainable": true, "dtype": "float32", "axis": [3], "momentum": 0.1, "epsilon": 0.001, "center": true, "scale": true, "beta_initializer": {"class_name": "Zeros", "config": {}}, "gamma_initializer": {"class_name": "Ones", "config": {}}, "moving_mean_initializer": {"class_name": "Zeros", "config": {}}, "moving_variance_initializer": {"class_name": "Ones", "config": {}}, "beta_regularizer": null, "gamma_regularizer": null, "beta_constraint": null, "gamma_constraint": null}, "name": "stage3_2_branch1_basic3_bn1", "inbound_nodes": [[["stage3_2_branch1_basic3_conv1", 0, 0, {}]]]}, {"class_name": "BatchNormalization", "config": {"name": "stage3_2_branch2_basic3_bn2", "trainable": true, "dtype": "float32", "axis": [3], "momentum": 0.1, "epsilon": 0.001, "center": true, "scale": true, "beta_initializer": {"class_name": "Zeros", "config": {}}, "gamma_initializer": {"class_name": "Ones", "config": {}}, "moving_mean_initializer": {"class_name": "Zeros", "config": {}}, "moving_variance_initializer": {"class_name": "Ones", "config": {}}, "beta_regularizer": null, "gamma_regularizer": null, "beta_constraint": null, "gamma_constraint": null}, "name": "stage3_2_branch2_basic3_bn2", "inbound_nodes": [[["stage3_2_branch2_basic3_conv2", 0, 0, {}]]]}, {"class_name": "BatchNormalization", "config": {"name": "stage3_2_branch3_basic3_bn2", "trainable": true, "dtype": "float32", "axis": [3], "momentum": 0.1, "epsilon": 0.001, "center": true, "scale": true, "beta_initializer": {"class_name": "Zeros", "config": {}}, "gamma_initializer": {"class_name": "Ones", "config": {}}, "moving_mean_initializer": {"class_name": "Zeros", "config": {}}, "moving_variance_initializer": {"class_name": "Ones", "config": {}}, "beta_regularizer": null, "gamma_regularizer": null, "beta_constraint": null, "gamma_constraint": null}, "name": "stage3_2_branch3_basic3_bn2", "inbound_nodes": [[["stage3_2_branch3_basic3_conv2", 0, 0, {}]]]}, {"class_name": "Activation", "config": {"name": "stage3_2_branch1_basic3_relu1", "trainable": true, "dtype": "float32", "activation": "relu"}, "name": "stage3_2_branch1_basic3_relu1", "inbound_nodes": [[["stage3_2_branch1_basic3_bn1", 0, 0, {}]]]}, {"class_name": "Add", "config": {"name": "stage3_2_branch2_basic3_res", "trainable": true, "dtype": "float32"}, "name": "stage3_2_branch2_basic3_res", "inbound_nodes": [[["stage3_2_branch2_basic3_bn2", 0, 0, {}], ["stage3_2_branch2_basic2_out", 0, 0, {}]]]}, {"class_name": "Add", "config": {"name": "stage3_2_branch3_basic3_res", "trainable": true, "dtype": "float32"}, "name": "stage3_2_branch3_basic3_res", "inbound_nodes": [[["stage3_2_branch3_basic3_bn2", 0, 0, {}], ["stage3_2_branch3_basic2_out", 0, 0, {}]]]}, {"class_name": "Conv2D", "config": {"name": "stage3_2_branch1_basic3_conv2", "trainable": true, "dtype": "float32", "filters": 32, "kernel_size": [3, 3], "strides": [1, 1], "padding": "same", "data_format": "channels_last", "dilation_rate": [1, 1], "groups": 1, "activation": "linear", "use_bias": false, "kernel_initializer": {"class_name": "HeNormal", "config": {"seed": null}}, "bias_initializer": {"class_name": "Zeros", "config": {}}, "kernel_regularizer": null, "bias_regularizer": null, "activity_regularizer": null, "kernel_constraint": null, "bias_constraint": null}, "name": "stage3_2_branch1_basic3_conv2", "inbound_nodes": [[["stage3_2_branch1_basic3_relu1", 0, 0, {}]]]}, {"class_name": "Activation", "config": {"name": "stage3_2_branch2_basic3_out", "trainable": true, "dtype": "float32", "activation": "relu"}, "name": "stage3_2_branch2_basic3_out", "inbound_nodes": [[["stage3_2_branch2_basic3_res", 0, 0, {}]]]}, {"class_name": "Activation", "config": {"name": "stage3_2_branch3_basic3_out", "trainable": true, "dtype": "float32", "activation": "relu"}, "name": "stage3_2_branch3_basic3_out", "inbound_nodes": [[["stage3_2_branch3_basic3_res", 0, 0, {}]]]}, {"class_name": "BatchNormalization", "config": {"name": "stage3_2_branch1_basic3_bn2", "trainable": true, "dtype": "float32", "axis": [3], "momentum": 0.1, "epsilon": 0.001, "center": true, "scale": true, "beta_initializer": {"class_name": "Zeros", "config": {}}, "gamma_initializer": {"class_name": "Ones", "config": {}}, "moving_mean_initializer": {"class_name": "Zeros", "config": {}}, "moving_variance_initializer": {"class_name": "Ones", "config": {}}, "beta_regularizer": null, "gamma_regularizer": null, "beta_constraint": null, "gamma_constraint": null}, "name": "stage3_2_branch1_basic3_bn2", "inbound_nodes": [[["stage3_2_branch1_basic3_conv2", 0, 0, {}]]]}, {"class_name": "Conv2D", "config": {"name": "stage3_2_branch2_basic4_conv1", "trainable": true, "dtype": "float32", "filters": 64, "kernel_size": [3, 3], "strides": [1, 1], "padding": "same", "data_format": "channels_last", "dilation_rate": [1, 1], "groups": 1, "activation": "linear", "use_bias": false, "kernel_initializer": {"class_name": "HeNormal", "config": {"seed": null}}, "bias_initializer": {"class_name": "Zeros", "config": {}}, "kernel_regularizer": null, "bias_regularizer": null, "activity_regularizer": null, "kernel_constraint": null, "bias_constraint": null}, "name": "stage3_2_branch2_basic4_conv1", "inbound_nodes": [[["stage3_2_branch2_basic3_out", 0, 0, {}]]]}, {"class_name": "Conv2D", "config": {"name": "stage3_2_branch3_basic4_conv1", "trainable": true, "dtype": "float32", "filters": 128, "kernel_size": [3, 3], "strides": [1, 1], "padding": "same", "data_format": "channels_last", "dilation_rate": [1, 1], "groups": 1, "activation": "linear", "use_bias": false, "kernel_initializer": {"class_name": "HeNormal", "config": {"seed": null}}, "bias_initializer": {"class_name": "Zeros", "config": {}}, "kernel_regularizer": null, "bias_regularizer": null, "activity_regularizer": null, "kernel_constraint": null, "bias_constraint": null}, "name": "stage3_2_branch3_basic4_conv1", "inbound_nodes": [[["stage3_2_branch3_basic3_out", 0, 0, {}]]]}, {"class_name": "Add", "config": {"name": "stage3_2_branch1_basic3_res", "trainable": true, "dtype": "float32"}, "name": "stage3_2_branch1_basic3_res", "inbound_nodes": [[["stage3_2_branch1_basic3_bn2", 0, 0, {}], ["stage3_2_branch1_basic2_out", 0, 0, {}]]]}, {"class_name": "BatchNormalization", "config": {"name": "stage3_2_branch2_basic4_bn1", "trainable": true, "dtype": "float32", "axis": [3], "momentum": 0.1, "epsilon": 0.001, "center": true, "scale": true, "beta_initializer": {"class_name": "Zeros", "config": {}}, "gamma_initializer": {"class_name": "Ones", "config": {}}, "moving_mean_initializer": {"class_name": "Zeros", "config": {}}, "moving_variance_initializer": {"class_name": "Ones", "config": {}}, "beta_regularizer": null, "gamma_regularizer": null, "beta_constraint": null, "gamma_constraint": null}, "name": "stage3_2_branch2_basic4_bn1", "inbound_nodes": [[["stage3_2_branch2_basic4_conv1", 0, 0, {}]]]}, {"class_name": "BatchNormalization", "config": {"name": "stage3_2_branch3_basic4_bn1", "trainable": true, "dtype": "float32", "axis": [3], "momentum": 0.1, "epsilon": 0.001, "center": true, "scale": true, "beta_initializer": {"class_name": "Zeros", "config": {}}, "gamma_initializer": {"class_name": "Ones", "config": {}}, "moving_mean_initializer": {"class_name": "Zeros", "config": {}}, "moving_variance_initializer": {"class_name": "Ones", "config": {}}, "beta_regularizer": null, "gamma_regularizer": null, "beta_constraint": null, "gamma_constraint": null}, "name": "stage3_2_bra…
: "stage4_1_branch2_basic4_bn2/gamma", "shape": [64], "dtype": "float32"}, {"name": "stage4_1_branch2_basic4_bn2/beta", "shape": [64], "dtype": "float32"}, {"name": "stage4_1_branch2_basic4_bn2/moving_mean", "shape": [64], "dtype": "float32"}, {"name": "stage4_1_branch2_basic4_bn2/moving_variance", "shape": [64], "dtype": "float32"}, {"name": "stage4_1_branch2_basic4_conv1/kernel", "shape": [3, 3, 64, 64], "dtype": "float32"}, {"name": "stage4_1_branch2_basic4_conv2/kernel", "shape": [3, 3, 64, 64], "dtype": "float32"}, {"name": "stage4_1_branch3_basic1_bn1/gamma", "shape": [128], "dtype": "float32"}, {"name": "stage4_1_branch3_basic1_bn1/beta", "shape": [128], "dtype": "float32"}, {"name": "stage4_1_branch3_basic1_bn1/moving_mean", "shape": [128], "dtype": "float32"}, {"name": "stage4_1_branch3_basic1_bn1/moving_variance", "shape": [128], "dtype": "float32"}, {"name": "stage4_1_branch3_basic1_bn2/gamma", "shape": [128], "dtype": "float32"}, {"name": "stage4_1_branch3_basic1_bn2/beta", "shape": [128], "dtype": "float32"}, {"name": "stage4_1_branch3_basic1_bn2/moving_mean", "shape": [128], "dtype": "float32"}, {"name": "stage4_1_branch3_basic1_bn2/moving_variance", "shape": [128], "dtype": "float32"}, {"name": "stage4_1_branch3_basic1_conv1/kernel", "shape": [3, 3, 128, 128], "dtype": "float32"}, {"name": "stage4_1_branch3_basic1_conv2/kernel", "shape": [3, 3, 128, 128], "dtype": "float32"}, {"name": "stage4_1_branch3_basic2_bn1/gamma", "shape": [128], "dtype": "float32"}, {"name": "stage4_1_branch3_basic2_bn1/beta", "shape": [128], "dtype": "float32"}, {"name": "stage4_1_branch3_basic2_bn1/moving_mean", "shape": [128], "dtype": "float32"}, {"name": "stage4_1_branch3_basic2_bn1/moving_variance", "shape": [128], "dtype": "float32"}, {"name": "stage4_1_branch3_basic2_bn2/gamma", "shape": [128], "dtype": "float32"}, {"name": "stage4_1_branch3_basic2_bn2/beta", "shape": [128], "dtype": "float32"}, {"name": "stage4_1_branch3_basic2_bn2/moving_mean", "shape": [128], "dtype": "float32"}, {"name": "stage4_1_branch3_basic2_bn2/moving_variance", "shape": [128], "dtype": "float32"}, {"name": "stage4_1_branch3_basic2_conv1/kernel", "shape": [3, 3, 128, 128], "dtype": "float32"}, {"name": "stage4_1_branch3_basic2_conv2/kernel", "shape": [3, 3, 128, 128], "dtype": "float32"}, {"name": "stage4_1_branch3_basic3_bn1/gamma", "shape": [128], "dtype": "float32"}, {"name": "stage4_1_branch3_basic3_bn1/beta", "shape": [128], "dtype": "float32"}, {"name": "stage4_1_branch3_basic3_bn1/moving_mean", "shape": [128], "dtype": "float32"}, {"name": "stage4_1_branch3_basic3_bn1/moving_variance", "shape": [128], "dtype": "float32"}, {"name": "stage4_1_branch3_basic3_bn2/gamma", "shape": [128], "dtype": "float32"}, {"name": "stage4_1_branch3_basic3_bn2/beta", "shape": [128], "dtype": "float32"}, {"name": "stage4_1_branch3_basic3_bn2/moving_mean", "shape": [128], "dtype": "float32"}, {"name": "stage4_1_branch3_basic3_bn2/moving_variance", "shape": [128], "dtype": "float32"}, {"name": "stage4_1_branch3_basic3_conv1/kernel", "shape": [3, 3, 128, 128], "dtype": "float32"}, {"name": "stage4_1_branch3_basic3_conv2/kernel", "shape": [3, 3, 128, 128], "dtype": "float32"}, {"name": "stage4_1_branch3_basic4_bn1/gamma", "shape": [128], "dtype": "float32"}, {"name": "stage4_1_branch3_basic4_bn1/beta", "shape": [128], "dtype": "float32"}, {"name": "stage4_1_branch3_basic4_bn1/moving_mean", "shape": [128], "dtype": "float32"}, {"name": "stage4_1_branch3_basic4_bn1/moving_variance", "shape": [128], "dtype": "float32"}, {"name": "stage4_1_branch3_basic4_bn2/gamma", "shape": [128], "dtype": "float32"}, {"name": "stage4_1_branch3_basic4_bn2/beta", "shape": [128], "dtype": "float32"}, {"name": "stage4_1_branch3_basic4_bn2/moving_mean", "shape": [128], "dtype": "float32"}, {"name": "stage4_1_branch3_basic4_bn2/moving_variance", "shape": [128], "dtype": "float32"}, {"name": "stage4_1_branch3_basic4_conv1/kernel", "shape": [3, 3, 128, 128], "dtype": "float32"}, {"name": "stage4_1_branch3_basic4_conv2/kernel", "shape": [3, 3, 128, 128], "dtype": "float32"}, {"name": "stage4_1_branch4_basic1_bn1/gamma", "shape": [256], "dtype": "float32"}, {"name": "stage4_1_branch4_basic1_bn1/beta", "shape": [256], "dtype": "float32"}, {"name": "stage4_1_branch4_basic1_bn1/moving_mean", "shape": [256], "dtype": "float32"}, {"name": "stage4_1_branch4_basic1_bn1/moving_variance", "shape": [256], "dtype": "float32"}, {"name": "stage4_1_branch4_basic1_bn2/gamma", "shape": [256], "dtype": "float32"}, {"name": "stage4_1_branch4_basic1_bn2/beta", "shape": [256], "dtype": "float32"}, {"name": "stage4_1_branch4_basic1_bn2/moving_mean", "shape": [256], "dtype": "float32"}, {"name": "stage4_1_branch4_basic1_bn2/moving_variance", "shape": [256], "dtype": "float32"}, {"name": "stage4_1_branch4_basic1_conv1/kernel", "shape": [3, 3, 256, 256], "dtype": "float32"}, {"name": "stage4_1_branch4_basic1_conv2/kernel", "shape": [3, 3, 256, 256], "dtype": "float32"}, {"name": "stage4_1_branch4_basic2_bn1/gamma", "shape": [256], "dtype": "float32"}, {"name": "stage4_1_branch4_basic2_bn1/beta", "shape": [256], "dtype": "float32"}, {"name": "stage4_1_branch4_basic2_bn1/moving_mean", "shape": [256], "dtype": "float32"}, {"name": "stage4_1_branch4_basic2_bn1/moving_variance", "shape": [256], "dtype": "float32"}, {"name": "stage4_1_branch4_basic2_bn2/gamma", "shape": [256], "dtype": "float32"}, {"name": "stage4_1_branch4_basic2_bn2/beta", "shape": [256], "dtype": "float32"}, {"name": "stage4_1_branch4_basic2_bn2/moving_mean", "shape": [256], "dtype": "float32"}, {"name": "stage4_1_branch4_basic2_bn2/moving_variance", "shape": [256], "dtype": "float32"}, {"name": "stage4_1_branch4_basic2_conv1/kernel", "shape": [3, 3, 256, 256], "dtype": "float32"}, {"name": "stage4_1_branch4_basic2_conv2/kernel", "shape": [3, 3, 256, 256], "dtype": "float32"}, {"name": "stage4_1_branch4_basic3_bn1/gamma", "shape": [256], "dtype": "float32"}, {"name": "stage4_1_branch4_basic3_bn1/beta", "shape": [256], "dtype": "float32"}, {"name": "stage4_1_branch4_basic3_bn1/moving_mean", "shape": [256], "dtype": "float32"}, {"name": "stage4_1_branch4_basic3_bn1/moving_variance", "shape": [256], "dtype": "float32"}, {"name": "stage4_1_branch4_basic3_bn2/gamma", "shape": [256], "dtype": "float32"}, {"name": "stage4_1_branch4_basic3_bn2/beta", "shape": [256], "dtype": "float32"}, {"name": "stage4_1_branch4_basic3_bn2/moving_mean", "shape": [256], "dtype": "float32"}, {"name": "stage4_1_branch4_basic3_bn2/moving_variance", "shape": [256], "dtype": "float32"}, {"name": "stage4_1_branch4_basic3_conv1/kernel", "shape": [3, 3, 256, 256], "dtype": "float32"}, {"name": "stage4_1_branch4_basic3_conv2/kernel", "shape": [3, 3, 256, 256], "dtype": "float32"}, {"name": "stage4_1_branch4_basic4_bn1/gamma", "shape": [256], "dtype": "float32"}, {"name": "stage4_1_branch4_basic4_bn1/beta", "shape": [256], "dtype": "float32"}, {"name": "stage4_1_branch4_basic4_bn1/moving_mean", "shape": [256], "dtype": "float32"}, {"name": "stage4_1_branch4_basic4_bn1/moving_variance", "shape": [256], "dtype": "float32"}, {"name": "stage4_1_branch4_basic4_bn2/gamma", "shape": [256], "dtype": "float32"}, {"name": "stage4_1_branch4_basic4_bn2/beta", "shape": [256], "dtype": "float32"}, {"name": "stage4_1_branch4_basic4_bn2/moving_mean", "shape": [256], "dtype": "float32"}, {"name": "stage4_1_branch4_basic4_bn2/moving_variance", "shape": [256], "dtype": "float32"}, {"name": "stage4_1_branch4_basic4_conv1/kernel", "shape": [3, 3, 256, 256], "dtype": "float32"}, {"name": "stage4_1_branch4_basic4_conv2/kernel", "shape": [3, 3, 256, 256], "dtype": "float32"}, {"name": "stage4_1_fuse_bn1_2/gamma", "shape": [64], "dtype": "float32"}, {"name": "stage4_1_fuse_bn1_2/beta", "shape": [64], "dtype": "float32"}, {"name": "stage4_1_fuse_bn1_2/moving_mean", "shape": [64], "dtype": "float32"}, {"name": "stage4_1_fuse_bn1_2/moving_variance", "shape": [64], "dtype": "float32"}, {"name": "stage4_1_fuse_bn1_3_1/gamma", "shape": [32], "dtype": "float32"}, {"name": "stage4_1_fuse_bn1_3_1/beta", "shape": [32], "dtype": "float32"}, {"name": "stage4_1_fuse_bn1_3_1/moving_mean", "shape": [32], "dtype": "float32"}, {"name": "stage4_1_fuse_bn1_3_1/moving_variance", "shape": [32], "dtype": "float32"}, {"name": "stage4_1_fuse_bn1_3_2/gamma", "shape": [128], "dtype": "float32"}, {"name": "stage4_1_fuse_bn1_3_2/beta", "shape": [128], "dtype": "float32"}, {"name": "stage4_1_fuse_bn1_3_2/moving_mean", "shape": [128], "dtype": "float32"}, {"name": "stage4_1_fuse_bn1_3_2/moving_variance", "shape": [128], "dtype": "float32"}, {"name": "stage4_1_fuse_bn1_4_1/gamma", "shape": [32], "dtype": "float32"}, {"name": "stage4_1_fuse_bn1_4_1/beta", "shape": [32], "dtype": "float32"}, {"name": "stage4_1_fuse_bn1_4_1/moving_mean", "shape": [32], "dtype": "float32"}, {"name": "stage4_1_fuse_bn1_4_1/moving_variance", "shape": [32], "dtype": "float32"}, {"name": "stage4_1_fuse_bn1_4_2/gamma", "shape": [32], "dtype": "float32"}, {"name": "stage4_1_fuse_bn1_4_2/beta", "shape": [32], "dtype": "float32"}, {"name": "stage4_1_fuse_bn1_4_2/moving_mean", "shape": [32], "dtype": "float32"}, {"name": "stage4_1_fuse_bn1_4_2/moving_variance", "shape": [32], "dtype": "float32"}, {"name": "stage4_1_fuse_bn1_4_3/gamma", "shape": [256], "dtype": "float32"}, {"name": "stage4_1_fuse_bn1_4_3/beta", "shape": [256], "dtype": "float32"}, {"name": "stage4_1_fuse_bn1_4_3/moving_mean", "shape": [256], "dtype": "float32"}, {"name": "stage4_1_fuse_bn1_4_3/moving_variance", "shape": [256], "dtype": "float32"}, {"name": "stage4_1_fuse_bn2_1/gamma", "shape": [32], "dtype": "float32"}, {"name": "stage4_1_fuse_bn2_1/beta", "shape": [32], "dtype": "float32"}, {"name": "stage4_1_fuse_bn2_1/moving_mean", "shape": [32], "dtype": "float32"}, {"name": "stage4_1_fuse_bn2_1/moving_variance", "shape": [32], "dtype": "float32"}, {"name": "stage4_1_fuse_bn2_3/gamma", "shape": [128], "dtype": "float32"}, {"name": "stage4_1_fuse_bn2_3/beta", "shape": [128], "dtype": "float32"}, {"name": "stage4_1_fuse_bn2_3/moving_mean", "shape": [128], "dtype": "float32"}, {"name": "stage4_1_fuse_bn2_3/moving_variance", "shape": [128], "dtype": "float32"}, {"name": "stage4_1_fuse_bn2_4_1/gamma", "shape": [64], "dtype": "float32"}, {"name": "stage4_1_fuse_bn2_4_1/beta", "shape": [64], "dtype": "float32"}, {"name": "stage4_1_fuse_bn2_4_1/moving_mean", "shape": [64], "dtype": "float32"}, {"name": "stage4_1_fuse_bn2_4_1/moving_variance", "shape": [64], "dtype": "float32"}, {"name": "stage4_1_fuse_bn2_4_2/gamma", "shape": [256], "dtype": "float32"}, {"name": "stage4_1_fuse_bn2_4_2/beta", "shape": [256], "dtype": "float32"}, {"name": "stage4_1_fuse_bn2_4_2/moving_mean", "shape": [256], "dtype": "float32"}, {"name": "stage4_1_fuse_bn2_4_2/moving_variance", "shape": [256], "dtype": "float32"}, {"name": "stage4_1_fuse_bn3_1/gamma", "shape": [32], "dtype": "float32"}, {"name": "stage4_1_fuse_bn3_1/beta", "shape": [32], "dtype": "float32"}, {"name": "stage4_1_fuse_bn3_1/moving_mean", "shape": [32], "dtype": "float32"}, {"name": "stage4_1_fuse_bn3_1/moving_variance", "shape": [32], "dtype": "float32"}, {"name": "stage4_1_fuse_bn3_2/gamma", "shape": [64], "dtype": "float32"}, {"name": "stage4_1_fuse_bn3_2/beta", "shape": [64], "dtype": "float32"}, {"name": "stage4_1_fuse_bn3_2/moving_mean", "shape": [64], "dtype": "float32"}, {"name": "stage4_1_fuse_bn3_2/moving_variance", "shape": [64], "dtype": "float32"}, {"name": "stage4_1_fuse_bn3_4/gamma", "shape": [256], "dtype": "float32"}, {"name": "stage4_1_fuse_bn3_4/beta", "shape": [256], "dtype": "float32"}, {"name": "stage4_1_fuse_bn3_4/moving_mean", "shape": [256], "dtype": "float32"}, {"name": "stage4_1_fuse_bn3_4/moving_variance", "shape": [256], "dtype": "float32"}, {"name": "stage4_1_fuse_bn4_1/gamma", "shape": [32], "dtype": "float32"}, {"name": "stage4_1_fuse_bn4_1/beta", "shape": [32], "dtype": "float32"}, {"name": "stage4_1_fuse_bn4_1/moving_mean", "shape": [32], "dtype": "float32"}, {"name": "stage4_1_fuse_bn4_1/moving_variance", "shape": [32], "dtype": "float32"}, {"name": "stage4_1_fuse_bn4_2/gamma", "shape": [64], "dtype": "float32"}, {"name": "stage4_1_fuse_bn4_2/beta", "shape": [64], "dtype": "float32"}, {"name": "stage4_1_fuse_bn4_2/moving_mean", "shape": [64], "dtype": "float32"}, {"name": "stage4_1_fuse_bn4_2/moving_variance", "shape": [64], "dtype": "float32"}, {"name": "stage4_1_fuse_bn4_3/gamma", "shape": [128], "dtype": "float32"}, {"name": "stage4_1_fuse_bn4_3/beta", "shape": [128], "dtype": "float32"}, {"name": "stage4_1_fuse_bn4_3/moving_mean", "shape": [128], "dtype": "float32"}, {"name": "stage4_1_fuse_bn4_3/moving_variance", "shape": [128], "dtype": "float32"}, {"name": "stage4_1_fuse_conv1_2/kernel", "shape": [3, 3, 32, 64], "dtype": "float32"}, {"name": "stage4_1_fuse_conv1_3_1/kernel", "shape": [3, 3, 32, 32], "dtype": "float32"}, {"name": "stage4_1_fuse_conv1_3_2/kernel", "shape": [3, 3, 32, 128], "dtype": "float32"}, {"name": "stage4_1_fuse_conv1_4_1/kernel", "shape": [3, 3, 32, 32], "dtype": "float32"}, {"name": "stage4_1_fuse_conv1_4_2/kernel", "shape": [3, 3, 32, 32], "dtype": "float32"}, {"name": "stage4_1_fuse_conv1_4_3/kernel", "shape": [3, 3, 32, 256], "dtype": "float32"}, {"name": "stage4_1_fuse_conv2_1/kernel", "shape": [1, 1, 64, 32], "dtype": "float32"}, {"name": "stage4_1_fuse_conv2_3/kernel", "shape": [3, 3, 64, 128], "dtype": "float32"}, {"name": "stage4_1_fuse_conv2_4_1/kernel", "shape": [3, 3, 64, 64], "dtype": "float32"}, {"name": "stage4_1_fuse_conv2_4_2/kernel", "shape": [3, 3, 64, 256], "dtype": "float32"}, {"name": "stage4_1_fuse_conv3_1/kernel", "shape": [1, 1, 128, 32], "dtype": "float32"}, {"name": "stage4_1_fuse_conv3_2/kernel", "shape": [1, 1, 128, 64], "dtype": "float32"}, {"name": "stage4_1_fuse_conv3_4/kernel", "shape": [3, 3, 128, 256], "dtype": "float32"}, {"name": "stage4_1_fuse_conv4_1/kernel", "shape": [1, 1, 256, 32], "dtype": "float32"}, {"name": "stage4_1_fuse_conv4_2/kernel", "shape": [1, 1, 256, 64], "dtype": "float32"}, {"name": "stage4_1_fuse_conv4_3/kernel", "shape": [1, 1, 256, 128], "dtype": "float32"}, {"name": "stage4_2_branch1_basic1_bn1/gamma", "shape": [32], "dtype": "float32"}, {"name": "stage4_2_branch1_basic1_bn1/beta", "shape": [32], "dtype": "float32"}, {"name": "stage4_2_branch1_basic1_bn1/moving_mean", "shape": [32], "dtype": "float32"}, {"name": "stage4_2_branch1_basic1_bn1/moving_variance", "shape": [32], "dtype": "float32"}, {"name": "stage4_2_branch1_basic1_bn2/gamma", "shape": [32], "dtype": "float32"}, {"name": "stage4_2_branch1_basic1_bn2/beta", "shape": [32], "dtype": "float32"}, {"name": "stage4_2_branch1_basic1_bn2/moving_mean", "shape": [32], "dtype": "float32"}, {"name": "stage4_2_branch1_basic1_bn2/moving_variance", "shape": [32], "dtype": "float32"}, {"name": "stage4_2_branch1_basic1_conv1/kernel", "shape": [3, 3, 32, 32], "dtype": "float32"}, {"name": "stage4_2_branch1_basic1_conv2/kernel", "shape": [3, 3, 32, 32], "dtype": "float32"}, {"name": "stage4_2_branch1_basic2_bn1/gamma", "shape": [32], "dtype": "float32"}, {"name": "stage4_2_branch1_basic2_bn1/beta", "shape": [32], "dtype": "float32"}, {"name": "stage4_2_branch1_basic2_bn1/moving_mean", "shape": [32], "dtype": "float32"}, {"name": "stage4_2_branch1_basic2_bn1/moving_variance", "shape": [32], "dtype": "float32"}, {"name": "stage4_2_branch1_basic2_bn2/gamma", "shape": [32], "dtype": "float32"}, {"name": "stage4_2_branch1_basic2_bn2/beta", "shape": [32], "dtype": "float32"}, {"name": "stage4_2_branch1_basic2_bn2/moving_mean", "shape": [32], "dtype": "float32"}, {"name": "stage4_2_branch1_basic2_bn2/moving_variance", "shape": [32], "dtype": "float32"}, {"name": "stage4_2_branch1_basic2_conv1/kernel", "shape": [3, 3, 32, 32], "dtype": "float32"}, {"name": "stage4_2_branch1_basic2_conv2/kernel", "shape": [3, 3, 32, 32], "dtype": "float32"}, {"name": "stage4_2_branch1_basic3_bn1/gamma", "shape": [32], "dtype": "float32"}, {"name": "stage4_2_branch1_basic3_bn1/beta", "shape": [32], "dtype": "float32"}, {"name": "stage4_2_branch1_basic3_bn1/moving_mean", "shape": [32], "dtype": "float32"}, {"name": "stage4_2_branch1_basic3_bn1/moving_variance", "shape": [32], "dtype": "float32"}, {"name": "stage4_2_branch1_basic3_bn2/gamma", "shape": [32], "dtype": "float32"}, {"name": "stage4_2_branch1_basic3_bn2/beta", "shape": [32], "dtype": "float32"}, {"name": "stage4_2_branch1_basic3_bn2/moving_mean", "shape": [32], "dtype": "float32"}, {"name": "stage4_2_branch1_basic3_bn2/moving_variance", "shape": [32], "dtype": "float32"}, {"name": "stage4_2_branch1_basic3_conv1/kernel", "shape": [3, 3, 32, 32], "dtype": "float32"}, {"name": "stage4_2_branch1_basic3_conv2/kernel", "shape": [3, 3, 32, 32], "dtype": "float32"}, {"name": "stage4_2_branch1_basic4_bn1/gamma", "shape": [32], "dtype": "float32"}, {"name": "stage4_2_branch1_basic4_bn1/beta", "shape": [32], "dtype": "float32"}, {"name": "stage4_2_branch1_basic4_bn1/moving_mean", "shape": [32], "dtype": "float32"}, {"name": "stage4_2_branch1_basic4_bn1/moving_variance", "shape": [32], "dtype": "float32"}, {"name": "stage4_2_branch1_basic4_bn2/gamma", "shape": [32], "dtype": "float32"}, {"name": "stage4_2_branch1_basic4_bn2/beta", "shape": [32], "dtype": "float32"}, {"name": "stage4_2_branch1_basic4_bn2/moving_mean", "shape": [32], "dtype": "float32"}, {"name": "stage4_2_branch1_basic4_bn2/moving_variance", "shape": [32], "dtype": "float32"}, {"name": "stage4_2_branch1_basic4_conv1/kernel", "shape": [3, 3, 32, 32], "dtype": "float32"}, {"name": "stage4_2_branch1_basic4_conv2/kernel", "shape": [3, 3, 32, 32], "dtype": "float32"}, {"name": "stage4_2_branch2_basic1_bn1/gamma", "shape": [64], "dtype": "float32"}, {"name": "stage4_2_branch2_basic1_bn1/beta", "shape": [64], "dtype": "float32"}, {"name": "stage4_2_branch2_basic1_bn1/moving_mean", "shape": [64], "dtype": "float32"}, {"name": "stage4_2_branch2_basic1_bn1/moving_variance", "shape": [64], "dtype": "float32"}, {"name": "stage4_2_branch2_basic1_bn2/gamma", "shape": [64], "dtype": "float32"}, {"name": "stage4_2_branch2_basic1_bn2/beta", "shape": [64], "dtype": "float32"}, {"name": "stage4_2_branch2_basic1_bn2/moving_mean", "shape": [64], "dtype": "float32"}, {"name": "stage4_2_branch2_basic1_bn2/moving_variance", "shape": [64], "dtype": "float32"}, {"name": "stage4_2_branch2_basic1_conv1/kernel", "shape": [3, 3, 64, 64], "dtype": "float32"}, {"name": "stage4_2_branch2_basic1_conv2/kernel", "shape": [3, 3, 64, 64], "dtype": "float32"}, {"name": "stage4_2_branch2_basic2_bn1/gamma", "shape": [64], "dtype": "float32"}, {"name": "stage4_2_branch2_basic2_bn1/beta", "shape": [64], "dtype": "float32"}, {"name": "stage4_2_branch2_basic2_bn1/moving_mean", "shape": [64], "dtype": "float32"}, {"name": "stage4_2_branch2_basic2_bn1/moving_variance", "shape": [64], "dtype": "float32"}, {"name": "stage4_2_branch2_basic2_bn2/gamma", "shape": [64], "dtype": "float32"}, {"name": "stage4_2_branch2_basic2_bn2/beta", "shape": [64], "dtype": "float32"}, {"name": "stage4_2_branch2_basic2_bn2/moving_mean", "shape": [64], "dtype": "float32"}, {"name": "stage4_2_branch2_basic2_bn2/moving_variance", "shape": [64], "dtype": "float32"}, {"name": "stage4_2_branch2_basic2_conv1/kernel", "shape": [3, 3, 64, 64], "dtype": "float32"}, {"name": "stage4_2_branch2_basic2_conv2/kernel", "shape": [3, 3, 64, 64], "dtype": "float32"}, {"name": "stage4_2_branch2_basic3_bn1/gamma", "shape": [64], "dtype": "float32"}, {"name": "stage4_2_branch2_basic3_bn1/beta", "shape": [64], "dtype": "float32"}, {"name": "stage4_2_branch2_basic3_bn1/moving_mean", "shape": [64], "dtype": "float32"}, {"name": "stage4_2_branch2_basic3_bn1/moving_variance", "shape": [64], "dtype": "float32"}, {"name": "stage4_2_branch2_basic3_bn2/gamma", "shape": [64], "dtype": "float32"}, {"name": "stage4_2_branch2_basic3_bn2/beta", "shape": [64], "dtype": "float32"}, {"name": "stage4_2_branch2_basic3_bn2/moving_mean", "shape": [64], "dtype": "float32"}, {"name": "stage4_2_branch2_basic3_bn2/moving_variance", "shape": [64], "dtype": "float32"}, {"name": "stage4_2_branch2_basic3_conv1/kernel", "shape": [3, 3, 64, 64], "dtype": "float32"}, {"name": "stage4_2_branch2_basic3_conv2/kernel", "shape": [3, 3, 64, 64], "dtype": "float32"}, {"name": "stage4_2_branch2_basic4_bn1/gamma", "shape": [64], "dtype": "float32"}, {"name": "stage4_2_branch2_basic4_bn1/beta", "shape": [64], "dtype": "float32"}, {"name": "stage4_2_branch2_basic4_bn1/moving_mean", "shape": [64], "dtype": "float32"}, {"name": "stage4_2_branch2_basic4_bn1/moving_variance", "shape": [64], "dtype": "float32"}, {"name": "stage4_2_branch2_basic4_bn2/gamma", "shape": [64], "dtype": "float32"}, {"name": "stage4_2_branch2_basic4_bn2/beta", "shape": [64], "dtype": "float32"}, {"name": "stage4_2_branch2_basic4_bn2/moving_mean", "shape": [64], "dtype": "float32"}, {"name": "stage4_2_branch2_basic4_bn2/moving_variance", "shape": [64], "dtype": "float32"}, {"name": "stage4_2_branch2_basic4_conv1/kernel", "shape": [3, 3, 64, 64], "dtype": "float32"}, {"name": "stage4_2_branch2_basic4_conv2/kernel", "shape": [3, 3, 64, 64], "dtype": "float32"}, {"name": "stage4_2_branch3_basic1_bn1/gamma", "shape": [128], "dtype": "float32"}, {"name": "stage4_2_branch3_basic1_bn1/beta", "shape": [128], "dtype": "float32"}, {"name": "stage4_2_branch3_basic1_bn1/moving_mean", "shape": [128], "dtype": "float32"}, {"name": "stage4_2_branch3_basic1_bn1/moving_variance", "shape": [128], "dtype": "float32"}, {"name": "stage4_2_branch3_basic1_bn2/gamma", "shape": [128], "dtype": "float32"}, {"name": "stage4_2_branch3_basic1_bn2/beta", "shape": [128], "dtype": "float32"}, {"name": "stage4_2_branch3_basic1_bn2/moving_mean", "shape": [128], "dtype": "float32"}, {"name": "stage4_2_branch3_basic1_bn2/moving_variance", "shape": [128], "dtype": "float32"}, {"name": "stage4_2_branch3_basic1_conv1/kernel", "shape": [3, 3, 128, 128], "dtype": "float32"}, {"name": "stage4_2_branch3_basic1_conv2/kernel", "shape": [3, 3, 128, 128], "dtype": "float32"}, {"name": "stage4_2_branch3_basic2_bn1/gamma", "shape": [128], "dtype": "float32"}, {"name": "stage4_2_branch3_basic2_bn1/beta", "shape": [128], "dtype": "float32"}, {"name": "stage4_2_branch3_basic2_bn1/moving_mean", "shape": [128], "dtype": "float32"}, {"name": "stage4_2_branch3_basic2_bn1/moving_variance", "shape": [128], "dtype": "float32"}, {"name": "stage4_2_branch3_basic2_bn2/gamma", "shape": [128], "dtype": "float32"}, {"name": "stage4_2_branch3_basic2_bn2/beta", "shape": [128], "dtype": "float32"}, {"name": "stage4_2_branch3_basic2_bn2/moving_mean", "shape": [128], "dtype": "float32"}, {"name": "stage4_2_branch3_basic2_bn2/moving_variance", "shape": [128], "dtype": "float32"}, {"name": "stage4_2_branch3_basic2_conv1/kernel", "shape": [3, 3, 128, 128], "dtype": "float32"}, {"name": "stage4_2_branch3_basic2_conv2/kernel", "shape": [3, 3, 128, 128], "dtype": "float32"}, {"name": "stage4_2_branch3_basic3_bn1/gamma", "shape": [128], "dtype": "float32"}, {"name": "stage4_2_branch3_basic3_bn1/beta", "shape": [128], "dtype": "float32"}, {"name": "stage4_2_branch3_basic3_bn1/moving_mean", "shape": [128], "dtype": "float32"}, {"name": "stage4_2_branch3_basic3_bn1/moving_variance", "shape": [128], "dtype": "float32"}, {"name": "stage4_2_branch3_basic3_bn2/gamma", "shape": [128], "dtype": "float32"}, {"name": "stage4_2_branch3_basic3_bn2/beta", "shape": [128], "dtype": "float32"}, {"name": "stage4_2_branch3_basic3_bn2/moving_mean", "shape": [128], "dtype": "float32"}, {"name": "stage4_2_branch3_basic3_bn2/moving_variance", "shape": [128], "dtype": "float32"}, {"name": "stage4_2_branch3_basic3_conv1/kernel", "shape": [3, 3, 128, 128], "dtype": "float32"}, {"name": "stage4_2_branch3_basic3_conv2/kernel", "shape": [3, 3, 128, 128], "dtype": "float32"}, {"name": "stage4_2_branch3_basic4_bn1/gamma", "shape": [128], "dtype": "float32"}, {"name": "stage4_2_branch3_basic4_bn1/beta", "shape": [128], "dtype": "float32"}, {"name": "stage4_2_branch3_basic4_bn1/moving_mean", "shape": [128], "dtype": "float32"}, {"name": "stage4_2_branch3_basic4_bn1/moving_variance", "shape": [128], "dtype": "float32"}, {"name": "stage4_2_branch3_basic4_bn2/gamma", "shape": [128], "dtype": "float32"}, {"name": "stage4_2_branch3_basic4_bn2/beta", "shape": [128], "dtype": "float32"}, {"name": "stage4_2_branch3_basic4_bn2/moving_mean", "shape": [128], "dtype": "float32"}, {"name": "stage4_2_branch3_basic4_bn2/moving_variance", "shape": [128], "dtype": "float32"}, {"name": "stage4_2_branch3_basic4_conv1/kernel", "shape": [3, 3, 128, 128], "dtype": "float32"}, {"name": "stage4_2_branch3_basic4_conv2/kernel", "shape": [3, 3, 128, 128], "dtype": "float32"}, {"name": "stage4_2_branch4_basic1_bn1/gamma", "shape": [256], "dtype": "float32"}, {"name": "stage4_2_branch4_basic1_bn1/beta", "shape": [256], "dtype": "float32"}, {"name": "stage4_2_branch4_basic1_bn1/moving_mean", "shape": [256], "dtype": "float32"}, {"name": "stage4_2_branch4_basic1_bn1/moving_variance", "shape": [256], "dtype": "float32"}, {"name": "stage4_2_branch4_basic1_bn2/gamma", "shape": [256], "dtype": "float32"}, {"name": "stage4_2_branch4_basic1_bn2/beta", "shape": [256], "dtype": "float32"}, {"name": "stage4_2_branch4_basic1_bn2/moving_mean", "shape": [256], "dtype": "float32"}, {"name": "stage4_2_branch4_basic1_bn2/moving_variance", "shape": [256], "dtype": "float32"}, {"name": "stage4_2_branch4_basic1_conv1/kernel", "shape": [3, 3, 256, 256], "dtype": "float32"}, {"name": "stage4_2_branch4_basic1_conv2/kernel", "shape": [3, 3, 256, 256], "dtype": "float32"}, {"name": "stage4_2_branch4_basic2_bn1/gamma", "shape": [256], "dtype": "float32"}, {"name": "stage4_2_branch4_basic2_bn1/beta", "shape": [256], "dtype": "float32"}, {"name": "stage4_2_branch4_basic2_bn1/moving_mean", "shape": [256], "dtype": "float32"}, {"name": "stage4_2_branch4_basic2_bn1/moving_variance", "shape": [256], "dtype": "float32"}, {"name": "stage4_2_branch4_basic2_bn2/gamma", "shape": [256], "dtype": "float32"}, {"name": "stage4_2_branch4_basic2_bn2/beta", "shape": [256], "dtype": "float32"}, {"name": "stage4_2_branch4_basic2_bn2/moving_mean", "shape": [256], "dtype": "float32"}, {"name": "stage4_2_branch4_basic2_bn2/moving_variance", "shape": [256], "dtype": "float32"}, {"name": "stage4_2_branch4_basic2_conv1/kernel", "shape": [3, 3, 256, 256], "dtype": "float32"}, {"name": "stage4_2_branch4_basic2_conv2/kernel", "shape": [3, 3, 256, 256], "dtype": "float32"}, {"name": "stage4_2_branch4_basic3_bn1/gamma", "shape": [256], "dtype": "float32"}, {"name": "stage4_2_branch4_basic3_bn1/beta", "shape": [256], "dtype": "float32"}, {"name": "stage4_2_branch4_basic3_bn1/moving_mean", "shape": [256], "dtype": "float32"}, {"name": "stage4_2_branch4_basic3_bn1/moving_variance", "shape": [256], "dtype": "float32"}, {"name": "stage4_2_branch4_basic3_bn2/gamma", "shape": [256], "dtype": "float32"}, {"name": "stage4_2_branch4_basic3_bn2/beta", "shape": [256], "dtype": "float32"}, {"name": "stage4_2_branch4_basic3_bn2/moving_mean", "shape": [256], "dtype": "float32"}, {"name": "stage4_2_branch4_basic3_bn2/moving_variance", "shape": [256], "dtype": "float32"}, {"name": "stage4_2_branch4_basic3_conv1/kernel", "shape": [3, 3, 256, 256], "dtype": "float32"}, {"name": "stage4_2_branch4_basic3_conv2/kernel", "shape": [3, 3, 256, 256], "dtype": "float32"}, {"name": "stage4_2_branch4_basic4_bn1/gamma", "shape": [256], "dtype": "float32"}, {"name": "stage4_2_branch4_basic4_bn1/beta", "shape": [256], "dtype": "float32"}, {"name": "stage4_2_branch4_basic4_bn1/moving_mean", "shape": [256], "dtype": "float32"}, {"name": "stage4_2_branch4_basic4_bn1/moving_variance", "shape": [256], "dtype": "float32"}, {"name": "stage4_2_branch4_basic4_bn2/gamma", "shape": [256], "dtype": "float32"}, {"name": "stage4_2_branch4_basic4_bn2/beta", "shape": [256], "dtype": "float32"}, {"name": "stage4_2_branch4_basic4_bn2/moving_mean", "shape": [256], "dtype": "float32"}, {"name": "stage4_2_branch4_basic4_bn2/moving_variance", "shape": [256], "dtype": "float32"}, {"name": "stage4_2_branch4_basic4_conv1/kernel", "shape": [3, 3, 256, 256], "dtype": "float32"}, {"name": "stage4_2_branch4_basic4_conv2/kernel", "shape": [3, 3, 256, 256], "dtype": "float32"}, {"name": "stage4_2_fuse_bn1_2/gamma", "shape": [64], "dtype": "float32"}, {"name": "stage4_2_fuse_bn1_2/beta", "shape": [64], "dtype": "float32"}, {"name": "stage4_2_fuse_bn1_2/moving_mean", "shape": [64], "dtype": "float32"}, {"name": "stage4_2_fuse_bn1_2/moving_variance", "shape": [64], "dtype": "float32"}, {"name": "stage4_2_fuse_bn1_3_1/gamma", "shape": [32], "dtype": "float32"}, {"name": "stage4_2_fuse_bn1_3_1/beta", "shape": [32], "dtype": "float32"}, {"name": "stage4_2_fuse_bn1_3_1/moving_mean", "shape": [32], "dtype": "float32"}, {"name": "stage4_2_fuse_bn1_3_1/moving_variance", "shape": [32], "dtype": "float32"}, {"name": "stage4_2_fuse_bn1_3_2/gamma", "shape": [128], "dtype": "float32"}, {"name": "stage4_2_fuse_bn1_3_2/beta", "shape": [128], "dtype": "float32"}, {"name": "stage4_2_fuse_bn1_3_2/moving_mean", "shape": [128], "dtype": "float32"}, {"name": "stage4_2_fuse_bn1_3_2/moving_variance", "shape": [128], "dtype": "float32"}, {"name": "stage4_2_fuse_bn1_4_1/gamma", "shape": [32], "dtype": "float32"}, {"name": "stage4_2_fuse_bn1_4_1/beta", "shape": [32], "dtype": "float32"}, {"name": "stage4_2_fuse_bn1_4_1/moving_mean", "shape": [32], "dtype": "float32"}, {"name": "stage4_2_fuse_bn1_4_1/moving_variance", "shape": [32], "dtype": "float32"}, {"name": "stage4_2_fuse_bn1_4_2/gamma", "shape": [32], "dtype": "float32"}, {"name": "stage4_2_fuse_bn1_4_2/beta", "shape": [32], "dtype": "float32"}, {"name": "stage4_2_fuse_bn1_4_2/moving_mean", "shape": [32], "dtype": "float32"}, {"name": "stage4_2_fuse_bn1_4_2/moving_variance", "shape": [32], "dtype": "float32"}, {"name": "stage4_2_fuse_bn1_4_3/gamma", "shape": [256], "dtype": "float32"}, {"name": "stage4_2_fuse_bn1_4_3/beta", "shape": [256], "dtype": "float32"}, {"name": "stage4_2_fuse_bn1_4_3/moving_mean", "shape": [256], "dtype": "float32"}, {"name": "stage4_2_fuse_bn1_4_3/moving_variance", "shape": [256], "dtype": "float32"}, {"name": "stage4_2_fuse_bn2_1/gamma", "shape": [32], "dtype": "float32"}, {"name": "stage4_2_fuse_bn2_1/beta", "shape": [32], "dtype": "float32"}, {"name": "stage4_2_fuse_bn2_1/moving_mean", "shape": [32], "dtype": "float32"}, {"name": "stage4_2_fuse_bn2_1/moving_variance", "shape": [32], "dtype": "float32"}, {"name": "stage4_2_fuse_bn2_3/gamma", "shape": [128], "dtype": "float32"}, {"name": "stage4_2_fuse_bn2_3/beta", "shape": [128], "dtype": "float32"}, {"name": "stage4_2_fuse_bn2_3/moving_mean", "shape": [128], "dtype": "float32"}, {"name": "stage4_2_fuse_bn2_3/moving_variance", "shape": [128], "dtype": "float32"}, {"name": "stage4_2_fuse_bn2_4_1/gamma", "shape": [64], "dtype": "float32"}, {"name": "stage4_2_fuse_bn2_4_1/beta", "shape": [64], "dtype": "float32"}, {"name": "stage4_2_fuse_bn2_4_1/moving_mean", "shape": [64], "dtype": "float32"}, {"name": "stage4_2_fuse_bn2_4_1/moving_variance", "shape": [64], "dtype": "float32"}, {"name": "stage4_2_fuse_bn2_4_2/gamma", "shape": [256], "dtype": "float32"}, {"name": "stage4_2_fuse_bn2_4_2/beta", "shape": [256], "dtype": "float32"}, {"name": "stage4_2_fuse_bn2_4_2/moving_mean", "shape": [256], "dtype": "float32"}, {"name": "stage4_2_fuse_bn2_4_2/moving_variance", "shape": [256], "dtype": "float32"}, {"name": "stage4_2_fuse_bn3_1/gamma", "shape": [32], "dtype": "float32"}, {"name": "stage4_2_fuse_bn3_1/beta", "shape": [32], "dtype": "float32"}, {"name": "stage4_2_fuse_bn3_1/moving_mean", "shape": [32], "dtype": "float32"}, {"name": "stage4_2_fuse_bn3_1/moving_variance", "shape": [32], "dtype": "float32"}, {"name": "stage4_2_fuse_bn3_2/gamma", "shape": [64], "dtype": "float32"}, {"name": "stage4_2_fuse_bn3_2/beta", "shape": [64], "dtype": "float32"}, {"name": "stage4_2_fuse_bn3_2/moving_mean", "shape": [64], "dtype": "float32"}, {"name": "stage4_2_fuse_bn3_2/moving_variance", "shape": [64], "dtype": "float32"}, {"name": "stage4_2_fuse_bn3_4/gamma", "shape": [256], "dtype": "float32"}, {"name": "stage4_2_fuse_bn3_4/beta", "shape": [256], "dtype": "float32"}, {"name": "stage4_2_fuse_bn3_4/moving_mean", "shape": [256], "dtype": "float32"}, {"name": "stage4_2_fuse_bn3_4/moving_variance", "shape": [256], "dtype": "float32"}, {"name": "stage4_2_fuse_bn4_1/gamma", "shape": [32], "dtype": "float32"}, {"name": "stage4_2_fuse_bn4_1/beta", "shape": [32], "dtype": "float32"}, {"name": "stage4_2_fuse_bn4_1/moving_mean", "shape": [32], "dtype": "float32"}, {"name": "stage4_2_fuse_bn4_1/moving_variance", "shape": [32], "dtype": "float32"}, {"name": "stage4_2_fuse_bn4_2/gamma", "shape": [64], "dtype": "float32"}, {"name": "stage4_2_fuse_bn4_2/beta", "shape": [64], "dtype": "float32"}, {"name": "stage4_2_fuse_bn4_2/moving_mean", "shape": [64], "dtype": "float32"}, {"name": "stage4_2_fuse_bn4_2/moving_variance", "shape": [64], "dtype": "float32"}, {"name": "stage4_2_fuse_bn4_3/gamma", "shape": [128], "dtype": "float32"}, {"name": "stage4_2_fuse_bn4_3/beta", "shape": [128], "dtype": "float32"}, {"name": "stage4_2_fuse_bn4_3/moving_mean", "shape": [128], "dtype": "float32"}, {"name": "stage4_2_fuse_bn4_3/moving_variance", "shape": [128], "dtype": "float32"}, {"name": "stage4_2_fuse_conv1_2/kernel", "shape": [3, 3, 32, 64], "dtype": "float32"}, {"name": "stage4_2_fuse_conv1_3_1/kernel", "shape": [3, 3, 32, 32], "dtype": "float32"}, {"name": "stage4_2_fuse_conv1_3_2/kernel", "shape": [3, 3, 32, 128], "dtype": "float32"}, {"name": "stage4_2_fuse_conv1_4_1/kernel", "shape": [3, 3, 32, 32], "dtype": "float32"}, {"name": "stage4_2_fuse_conv1_4_2/kernel", "shape": [3, 3, 32, 32], "dtype": "float32"}, {"name": "stage4_2_fuse_conv1_4_3/kernel", "shape": [3, 3, 32, 256], "dtype": "float32"}, {"name": "stage4_2_fuse_conv2_1/kernel", "shape": [1, 1, 64, 32], "dtype": "float32"}, {"name": "stage4_2_fuse_conv2_3/kernel", "shape": [3, 3, 64, 128], "dtype": "float32"}, {"name": "stage4_2_fuse_conv2_4_1/kernel", "shape": [3, 3, 64, 64], "dtype": "float32"}, {"name": "stage4_2_fuse_conv2_4_2/kernel", "shape": [3, 3, 64, 256], "dtype": "float32"}, {"name": "stage4_2_fuse_conv3_1/kernel", "shape": [1, 1, 128, 32], "dtype": "float32"}, {"name": "stage4_2_fuse_conv3_2/kernel", "shape": [1, 1, 128, 64], "dtype": "float32"}, {"name": "stage4_2_fuse_conv3_4/kernel", "shape": [3, 3, 128, 256], "dtype": "float32"}, {"name": "stage4_2_fuse_conv4_1/kernel", "shape": [1, 1, 256, 32], "dtype": "float32"}, {"name": "stage4_2_fuse_conv4_2/kernel", "shape": [1, 1, 256, 64], "dtype": "float32"}, {"name": "stage4_2_fuse_conv4_3/kernel", "shape": [1, 1, 256, 128], "dtype": "float32"}, {"name": "stage4_3_branch1_basic1_bn1/gamma", "shape": [32], "dtype": "float32"}, {"name": "stage4_3_branch1_basic1_bn1/beta", "shape": [32], "dtype": "float32"}, {"name": "stage4_3_branch1_basic1_bn1/moving_mean", "shape": [32], "dtype": "float32"}, {"name": "stage4_3_branch1_basic1_bn1/moving_variance", "shape": [32], "dtype": "float32"}, {"name": "stage4_3_branch1_basic1_bn2/gamma", "shape": [32], "dtype": "float32"}, {"name": "stage4_3_branch1_basic1_bn2/beta", "shape": [32], "dtype": "float32"}, {"name": "stage4_3_branch1_basic1_bn2/moving_mean", "shape": [32], "dtype": "float32"}, {"name": "stage4_3_branch1_basic1_bn2/moving_variance", "shape": [32], "dtype": "float32"}, {"name": "stage4_3_branch1_basic1_conv1/kernel", "shape": [3, 3, 32, 32], "dtype": "float32"}, {"name": "stage4_3_branch1_basic1_conv2/kernel", "shape": [3, 3, 32, 32], "dtype": "float32"}, {"name": "stage4_3_branch1_basic2_bn1/gamma", "shape": [32], "dtype": "float32"}, {"name": "stage4_3_branch1_basic2_bn1/beta", "shape": [32], "dtype": "float32"}, {"name": "stage4_3_branch1_basic2_bn1/moving_mean", "shape": [32], "dtype": "float32"}, {"name": "stage4_3_branch1_basic2_bn1/moving_variance", "shape": [32], "dtype": "float32"}, {"name": "stage4_3_branch1_basic2_bn2/gamma", "shape": [32], "dtype": "float32"}, {"name": "stage4_3_branch1_basic2_bn2/beta", "shape": [32], "dtype": "float32"}, {"name": "stage4_3_branch1_basic2_bn2/moving_mean", "shape": [32], "dtype": "float32"}, {"name": "stage4_3_branch1_basic2_bn2/moving_variance", "shape": [32], "dtype": "float32"}, {"name": "stage4_3_branch1_basic2_conv1/kernel", "shape": [3, 3, 32, 32], "dtype": "float32"}, {"name": "stage4_3_branch1_basic2_conv2/kernel", "shape": [3, 3, 32, 32], "dtype": "float32"}, {"name": "stage4_3_branch1_basic3_bn1/gamma", "shape": [32], "dtype": "float32"}, {"name": "stage4_3_branch1_basic3_bn1/beta", "shape": [32], "dtype": "float32"}, {"name": "stage4_3_branch1_basic3_bn1/moving_mean", "shape": [32], "dtype": "float32"}, {"name": "stage4_3_branch1_basic3_bn1/moving_variance", "shape": [32], "dtype": "float32"}, {"name": "stage4_3_branch1_basic3_bn2/gamma", "shape": [32], "dtype": "float32"}, {"name": "stage4_3_branch1_basic3_bn2/beta", "shape": [32], "dtype": "float32"}, {"name": "stage4_3_branch1_basic3_bn2/moving_mean", "shape": [32], "dtype": "float32"}, {"name": "stage4_3_branch1_basic3_bn2/moving_variance", "shape": [32], "dtype": "float32"}, {"name": "stage4_3_branch1_basic3_conv1/kernel", "shape": [3, 3, 32, 32], "dtype": "float32"}, {"name": "stage4_3_branch1_basic3_conv2/kernel", "shape": [3, 3, 32, 32], "dtype": "float32"}, {"name": "stage4_3_branch1_basic4_bn1/gamma", "shape": [32], "dtype": "float32"}, {"name": "stage4_3_branch1_basic4_bn1/beta", "shape": [32], "dtype": "float32"}, {"name": "stage4_3_branch1_basic4_bn1/moving_mean", "shape": [32], "dtype": "float32"}, {"name": "stage4_3_branch1_basic4_bn1/moving_variance", "shape": [32], "dtype": "float32"}, {"name": "stage4_3_branch1_basic4_bn2/gamma", "shape": [32], "dtype": "float32"}, {"name": "stage4_3_branch1_basic4_bn2/beta", "shape": [32], "dtype": "float32"}, {"name": "stage4_3_branch1_basic4_bn2/moving_mean", "shape": [32], "dtype": "float32"}, {"name": "stage4_3_branch1_basic4_bn2/moving_variance", "shape": [32], "dtype": "float32"}, {"name": "stage4_3_branch1_basic4_conv1/kernel", "shape": [3, 3, 32, 32], "dtype": "float32"}, {"name": "stage4_3_branch1_basic4_conv2/kernel", "shape": [3, 3, 32, 32], "dtype": "float32"}, {"name": "stage4_3_branch2_basic1_bn1/gamma", "shape": [64], "dtype": "float32"}, {"name": "stage4_3_branch2_basic1_bn1/beta", "shape": [64], "dtype": "float32"}, {"name": "stage4_3_branch2_basic1_bn1/moving_mean", "shape": [64], "dtype": "float32"}, {"name": "stage4_3_branch2_basic1_bn1/moving_variance", "shape": [64], "dtype": "float32"}, {"name": "stage4_3_branch2_basic1_bn2/gamma", "shape": [64], "dtype": "float32"}, {"name": "stage4_3_branch2_basic1_bn2/beta", "shape": [64], "dtype": "float32"}, {"name": "stage4_3_branch2_basic1_bn2/moving_mean", "shape": [64], "dtype": "float32"}, {"name": "stage4_3_branch2_basic1_bn2/moving_variance", "shape": [64], "dtype": "float32"}, {"name": "stage4_3_branch2_basic1_conv1/kernel", "shape": [3, 3, 64, 64], "dtype": "float32"}, {"name": "stage4_3_branch2_basic1_conv2/kernel", "shape": [3, 3, 64, 64], "dtype": "float32"}, {"name": "stage4_3_branch2_basic2_bn1/gamma", "shape": [64], "dtype": "float32"}, {"name": "stage4_3_branch2_basic2_bn1/beta", "shape": [64], "dtype": "float32"}, {"name": "stage4_3_branch2_basic2_bn1/moving_mean", "shape": [64], "dtype": "float32"}, {"name": "stage4_3_branch2_basic2_bn1/moving_variance", "shape": [64], "dtype": "float32"}, {"name": "stage4_3_branch2_basic2_bn2/gamma", "shape": [64], "dtype": "float32"}, {"name": "stage4_3_branch2_basic2_bn2/beta", "shape": [64], "dtype": "float32"}, {"name": "stage4_3_branch2_basic2_bn2/moving_mean", "shape": [64], "dtype": "float32"}, {"name": "stage4_3_branch2_basic2_bn2/moving_variance", "shape": [64], "dtype": "float32"}, {"name": "stage4_3_branch2_basic2_conv1/kernel", "shape": [3, 3, 64, 64], "dtype": "float32"}, {"name": "stage4_3_branch2_basic2_conv2/kernel", "shape": [3, 3, 64, 64], "dtype": "float32"}, {"name": "stage4_3_branch2_basic3_bn1/gamma", "shape": [64], "dtype": "float32"}, {"name": "stage4_3_branch2_basic3_bn1/beta", "shape": [64], "dtype": "float32"}, {"name": "stage4_3_branch2_basic3_bn1/moving_mean", "shape": [64], "dtype": "float32"}, {"name": "stage4_3_branch2_basic3_bn1/moving_variance", "shape": [64], "dtype": "float32"}, {"name": "stage4_3_branch2_basic3_bn2/gamma", "shape": [64], "dtype": "float32"}, {"name": "stage4_3_branch2_basic3_bn2/beta", "shape": [64], "dtype": "float32"}, {"name": "stage4_3_branch2_basic3_bn2/moving_mean", "shape": [64], "dtype": "float32"}, {"name": "stage4_3_branch2_basic3_bn2/moving_variance", "shape": [64], "dtype": "float32"}, {"name": "stage4_3_branch2_basic3_conv1/kernel", "shape": [3, 3, 64, 64], "dtype": "float32"}, {"name": "stage4_3_branch2_basic3_conv2/kernel", "shape": [3, 3, 64, 64], "dtype": "float32"}, {"name": "stage4_3_branch2_basic4_bn1/gamma", "shape": [64], "dtype": "float32"}, {"name": "stage4_3_branch2_basic4_bn1/beta", "shape": [64], "dtype": "float32"}, {"name": "stage4_3_branch2_basic4_bn1/moving_mean", "shape": [64], "dtype": "float32"}, {"name": "stage4_3_branch2_basic4_bn1/moving_variance", "shape": [64], "dtype": "float32"}, {"name": "stage4_3_branch2_basic4_bn2/gamma", "shape": [64], "dtype": "float32"}, {"name": "stage4_3_branch2_basic4_bn2/beta", "shape": [64], "dtype": "float32"}, {"name": "stage4_3_branch2_basic4_bn2/moving_mean", "shape": [64], "dtype": "float32"}, {"name": "stage4_3_branch2_basic4_bn2/moving_variance", "shape": [64], "dtype": "float32"}, {"name": "stage4_3_branch2_basic4_conv1/kernel", "shape": [3, 3, 64, 64], "dtype": "float32"}, {"name": "stage4_3_branch2_basic4_conv2/kernel", "shape": [3, 3, 64, 64], "dtype": "float32"}, {"name": "stage4_3_branch3_basic1_bn1/gamma", "shape": [128], "dtype": "float32"}, {"name": "stage4_3_branch3_basic1_bn1/beta", "shape": [128], "dtype": "float32"}, {"name": "stage4_3_branch3_basic1_bn1/moving_mean", "shape": [128], "dtype": "float32"}, {"name": "stage4_3_branch3_basic1_bn1/moving_variance", "shape": [128], "dtype": "float32"}, {"name": "stage4_3_branch3_basic1_bn2/gamma", "shape": [128], "dtype": "float32"}, {"name": "stage4_3_branch3_basic1_bn2/beta", "shape": [128], "dtype": "float32"}, {"name": "stage4_3_branch3_basic1_bn2/moving_mean", "shape": [128], "dtype": "float32"}, {"name": "stage4_3_branch3_basic1_bn2/moving_variance", "shape": [128], "dtype": "float32"}, {"name": "stage4_3_branch3_basic1_conv1/kernel", "shape": [3, 3, 128, 128], "dtype": "float32"}, {"name": "stage4_3_branch3_basic1_conv2/kernel", "shape": [3, 3, 128, 128], "dtype": "float32"}, {"name": "stage4_3_branch3_basic2_bn1/gamma", "shape": [128], "dtype": "float32"}, {"name": "stage4_3_branch3_basic2_bn1/beta", "shape": [128], "dtype": "float32"}, {"name": "stage4_3_branch3_basic2_bn1/moving_mean", "shape": [128], "dtype": "float32"}, {"name": "stage4_3_branch3_basic2_bn1/moving_variance", "shape": [128], "dtype": "float32"}, {"name": "stage4_3_branch3_basic2_bn2/gamma", "shape": [128], "dtype": "float32"}, {"name": "stage4_3_branch3_basic2_bn2/beta", "shape": [128], "dtype": "float32"}, {"name": "stage4_3_branch3_basic2_bn2/moving_mean", "shape": [128], "dtype": "float32"}, {"name": "stage4_3_branch3_basic2_bn2/moving_variance", "shape": [128], "dtype": "float32"}, {"name": "stage4_3_branch3_basic2_conv1/kernel", "shape": [3, 3, 128, 128], "dtype": "float32"}, {"name": "stage4_3_branch3_basic2_conv2/kernel", "shape": [3, 3, 128, 128], "dtype": "float32"}, {"name": "stage4_3_branch3_basic3_bn1/gamma", "shape": [128], "dtype": "float32"}, {"name": "stage4_3_branch3_basic3_bn1/beta", "shape": [128], "dtype": "float32"}, {"name": "stage4_3_branch3_basic3_bn1/moving_mean", "shape": [128], "dtype": "float32"}, {"name": "stage4_3_branch3_basic3_bn1/moving_variance", "shape": [128], "dtype": "float32"}, {"name": "stage4_3_branch3_basic3_bn2/gamma", "shape": [128], "dtype": "float32"}, {"name": "stage4_3_branch3_basic3_bn2/beta", "shape": [128], "dtype": "float32"}, {"name": "stage4_3_branch3_basic3_bn2/moving_mean", "shape": [128], "dtype": "float32"}, {"name": "stage4_3_branch3_basic3_bn2/moving_variance", "shape": [128], "dtype": "float32"}, {"name": "stage4_3_branch3_basic3_conv1/kernel", "shape": [3, 3, 128, 128], "dtype": "float32"}, {"name": "stage4_3_branch3_basic3_conv2/kernel", "shape": [3, 3, 128, 128], "dtype": "float32"}, {"name": "stage4_3_branch3_basic4_bn1/gamma", "shape": [128], "dtype": "float32"}, {"name": "stage4_3_branch3_basic4_bn1/beta", "shape": [128], "dtype": "float32"}, {"name": "stage4_3_branch3_basic4_bn1/moving_mean", "shape": [128], "dtype": "float32"}, {"name": "stage4_3_branch3_basic4_bn1/moving_variance", "shape": [128], "dtype": "float32"}, {"name": "stage4_3_branch3_basic4_bn2/gamma", "shape": [128], "dtype": "float32"}, {"name": "stage4_3_branch3_basic4_bn2/beta", "shape": [128], "dtype": "float32"}, {"name": "stage4_3_branch3_basic4_bn2/moving_mean", "shape": [128], "dtype": "float32"}, {"name": "stage4_3_branch3_basic4_bn2/moving_variance", "shape": [128], "dtype": "float32"}, {"name": "stage4_3_branch3_basic4_conv1/kernel", "shape": [3, 3, 128, 128], "dtype": "float32"}, {"name": "stage4_3_branch3_basic4_conv2/kernel", "shape": [3, 3, 128, 128], "dtype": "float32"}, {"name": "stage4_3_branch4_basic1_bn1/gamma", "shape": [256], "dtype": "float32"}, {"name": "stage4_3_branch4_basic1_bn1/beta", "shape": [256], "dtype": "float32"}, {"name": "stage4_3_branch4_basic1_bn1/moving_mean", "shape": [256], "dtype": "float32"}, {"name": "stage4_3_branch4_basic1_bn1/moving_variance", "shape": [256], "dtype": "float32"}, {"name": "stage4_3_branch4_basic1_bn2/gamma", "shape": [256], "dtype": "float32"}, {"name": "stage4_3_branch4_basic1_bn2/beta", "shape": [256], "dtype": "float32"}, {"name": "stage4_3_branch4_basic1_bn2/moving_mean", "shape": [256], "dtype": "float32"}, {"name": "stage4_3_branch4_basic1_bn2/moving_variance", "shape": [256], "dtype": "float32"}, {"name": "stage4_3_branch4_basic1_conv1/kernel", "shape": [3, 3, 256, 256], "dtype": "float32"}, {"name": "stage4_3_branch4_basic1_conv2/kernel", "shape": [3, 3, 256, 256], "dtype": "float32"}, {"name": "stage4_3_branch4_basic2_bn1/gamma", "shape": [256], "dtype": "float32"}, {"name": "stage4_3_branch4_basic2_bn1/beta", "shape": [256], "dtype": "float32"}, {"name": "stage4_3_branch4_basic2_bn1/moving_mean", "shape": [256], "dtype": "float32"}, {"name": "stage4_3_branch4_basic2_bn1/moving_variance", "shape": [256], "dtype": "float32"}, {"name": "stage4_3_branch4_basic2_bn2/gamma", "shape": [256], "dtype": "float32"}, {"name": "stage4_3_branch4_basic2_bn2/beta", "shape": [256], "dtype": "float32"}, {"name": "stage4_3_branch4_basic2_bn2/moving_mean", "shape": [256], "dtype": "float32"}, {"name": "stage4_3_branch4_basic2_bn2/moving_variance", "shape": [256], "dtype": "float32"}, {"name": "stage4_3_branch4_basic2_conv1/kernel", "shape": [3, 3, 256, 256], "dtype": "float32"}, {"name": "stage4_3_branch4_basic2_conv2/kernel", "shape": [3, 3, 256, 256], "dtype": "float32"}, {"name": "stage4_3_branch4_basic3_bn1/gamma", "shape": [256], "dtype": "float32"}, {"name": "stage4_3_branch4_basic3_bn1/beta", "shape": [256], "dtype": "float32"}, {"name": "stage4_3_branch4_basic3_bn1/moving_mean", "shape": [256], "dtype": "float32"}, {"name": "stage4_3_branch4_basic3_bn1/moving_variance", "shape": [256], "dtype": "float32"}, {"name": "stage4_3_branch4_basic3_bn2/gamma", "shape": [256], "dtype": "float32"}, {"name": "stage4_3_branch4_basic3_bn2/beta", "shape": [256], "dtype": "float32"}, {"name": "stage4_3_branch4_basic3_bn2/moving_mean", "shape": [256], "dtype": "float32"}, {"name": "stage4_3_branch4_basic3_bn2/moving_variance", "shape": [256], "dtype": "float32"}, {"name": "stage4_3_branch4_basic3_conv1/kernel", "shape": [3, 3, 256, 256], "dtype": "float32"}, {"name": "stage4_3_branch4_basic3_conv2/kernel", "shape": [3, 3, 256, 256], "dtype": "float32"}, {"name": "stage4_3_branch4_basic4_bn1/gamma", "shape": [256], "dtype": "float32"}, {"name": "stage4_3_branch4_basic4_bn1/beta", "shape": [256], "dtype": "float32"}, {"name": "stage4_3_branch4_basic4_bn1/moving_mean", "shape": [256], "dtype": "float32"}, {"name": "stage4_3_branch4_basic4_bn1/moving_variance", "shape": [256], "dtype": "float32"}, {"name": "stage4_3_branch4_basic4_bn2/gamma", "shape": [256], "dtype": "float32"}, {"name": "stage4_3_branch4_basic4_bn2/beta", "shape": [256], "dtype": "float32"}, {"name": "stage4_3_branch4_basic4_bn2/moving_mean", "shape": [256], "dtype": "float32"}, {"name": "stage4_3_branch4_basic4_bn2/moving_variance", "shape": [256], "dtype": "float32"}, {"name": "stage4_3_branch4_basic4_conv1/kernel", "shape": [3, 3, 256, 256], "dtype": "float32"}, {"name": "stage4_3_branch4_basic4_conv2/kernel", "shape": [3, 3, 256, 256], "dtype": "float32"}, {"name": "stage4_3_fuse_bn2_1/gamma", "shape": [32], "dtype": "float32"}, {"name": "stage4_3_fuse_bn2_1/beta", "shape": [32], "dtype": "float32"}, {"name": "stage4_3_fuse_bn2_1/moving_mean", "shape": [32], "dtype": "float32"}, {"name": "stage4_3_fuse_bn2_1/moving_variance", "shape": [32], "dtype": "float32"}, {"name": "stage4_3_fuse_bn3_1/gamma", "shape": [32], "dtype": "float32"}, {"name": "stage4_3_fuse_bn3_1/beta", "shape": [32], "dtype": "float32"}, {"name": "stage4_3_fuse_bn3_1/moving_mean", "shape": [32], "dtype": "float32"}, {"name": "stage4_3_fuse_bn3_1/moving_variance", "shape": [32], "dtype": "float32"}, {"name": "stage4_3_fuse_bn4_1/gamma", "shape": [32], "dtype": "float32"}, {"name": "stage4_3_fuse_bn4_1/beta", "shape": [32], "dtype": "float32"}, {"name": "stage4_3_fuse_bn4_1/moving_mean", "shape": [32], "dtype": "float32"}, {"name": "stage4_3_fuse_bn4_1/moving_variance", "shape": [32], "dtype": "float32"}, {"name": "stage4_3_fuse_conv2_1/kernel", "shape": [1, 1, 64, 32], "dtype": "float32"}, {"name": "stage4_3_fuse_conv3_1/kernel", "shape": [1, 1, 128, 32], "dtype": "float32"}, {"name": "stage4_3_fuse_conv4_1/kernel", "shape": [1, 1, 256, 32], "dtype": "float32"}]}]}